FNO.pth (torch, 923833 bytes, 22 tensors)

fc0.weight f4 [100, 6]
000000 95 ea 45 be db a3 d7 be a8 4b b0 3d 7b 8b ef bd
       -0.19327767 -0.421172 0.0860818 -0.11696526
000010 8b 0a 96 be 63 3d f3 3d 0b e4 04 3e 8f 42 6c 3e
       -0.2930492 0.11876943 0.12977616 0.23072265
000020 cc e0 0e 3e 50 4e 4c be 5a ce a7 3e 53 47 ef 3e
       0.1395294 -0.19951749 0.3277462 0.46734104
000030 65 14 48 be 3d 5f 49 be 60 54 2b be d5 d0 1d be
       -0.1953903 -0.19665237 -0.16731405 -0.15411694
000040 3d 6e bf bd b9 56 7a 3e 7e 38 c7 bd ee 22 98 3e
       -0.09347198 0.24447145 -0.09727572 0.2971415
000050 da c4 91 3e 5c 85 49 3e 3d 73 e0 bd 6c 82 f7 3d
       0.28470498 0.19679779 -0.1095948 0.12085423
000060 ed 34 c9 3c 27 53 33 be d9 fc 9f be 91 c5 e2 3d
       0.02456137 -0.17512189 -0.31247595 0.11072839
000070 74 5f 88 3c 4c 29 7c 3e 2c ee a6 3d c7 6d e1 bd
       0.016647078 0.24625129 0.081508964 -0.110072665
000080 4d e3 55 3d f4 cf 3e be 3d c1 9a 3e a6 31 2a 3e
       0.052218724 -0.18634015 0.30225554 0.16620502
000090 e8 47 50 be e6 e0 b6 be 6a a3 c0 be ff 06 5d be
       -0.2033993 -0.3571846 -0.37624675 -0.215847
0000a0 30 10 53 3e 88 ba 07 3e d6 e4 26 be 65 61 dc 3b
       0.20611644 0.1325475 -0.16298231 0.0067254775
0000b0 12 13 73 bd 7f 5e de 3d f1 8d 59 bd 9b 60 a6 be
       -0.05934436 0.108578674 -0.05311388 -0.3249558
0000c0 eb 70 a4 3e ca 4f e2 3d 90 95 81 3d 6d 7d 3f 3e
       0.321174 0.11050375 0.06327355 0.1870019
0000d0 73 a4 09 3e ca b3 77 3e 70 e1 aa 3e e4 65 c1 3e
       0.13441639 0.24189678 0.3337512 0.3777305
0000e0 b1 ab 83 3d 40 df b1 be f5 13 6b 3e d3 c7 8c be
       0.06429232 -0.3474064 0.22956832 -0.27496204
0000f0 34 75 2d be e1 1d 1f 3e 92 20 aa bb 17 45 6c 3d
       -0.1693924 0.15538742 -0.005191871 0.057683077
000100 86 5a 07 3e 40 47 ac 3e a0 26 08 bd 11 b9 75 3c
       0.13218126 0.3364811 -0.03323996 0.014997737
000110 83 0e 89 3e ec 42 26 3e ed b7 a4 be 27 4c 72 be
       0.26768884 0.16236466 -0.32171574 -0.23661862
000120 00 ea 16 3c 8f fe 51 3e 14 80 a7 3e 0a 91 b9 be
       0.009211063 0.20507263 0.32714903 -0.3624347
000130 a4 b0 32 3e a7 67 11 3e ea 3d 5e be 46 20 1f 3e
       0.17450196 0.14199696 -0.21703306 0.15539655
000140 4a 26 6c bc 09 1f 98 bd f0 36 ae 3e 09 49 ad bd
       -0.014413426 -0.074277945 0.3402629 -0.08461196
000150 f8 c6 f4 3c 5d c1 6e 3e ec f5 2b 3d a1 12 95 3e
       0.029880032 0.2331595 0.041982576 0.29115775
000160 8c 3d 0b 3d 70 0c 6f be 93 bd 65 3d 94 b0 b6 3d
       0.033994243 -0.23344588 0.056088995 0.08920398
000170 d8 c3 8b bd 90 8b 61 3e 6a 2a a0 bc 13 09 45 be
       -0.068244636 0.22025895 -0.019551475 -0.19241743
000180 42 b2 7c 3e fc 5b a6 be 65 46 93 3d b0 8f 59 be
       0.24677375 -0.32492054 0.07191161 -0.21246219
000190 cf d3 d6 3c 9e 43 b4 bd b0 70 ae 3e 73 ce 0a be
       0.026224045 -0.088019595 0.3407035 -0.13555317
0001a0 99 d4 42 3e 09 12 39 3e 66 69 ae bd c4 00 8f be
       0.19026412 0.18073286 -0.08516197 -0.27930272
0001b0 cf a7 34 be ad b6 c9 3e 52 5b 46 3e 83 c5 a0 be
       -0.17642139 0.39397183 0.19370773 -0.3140069
0001c0 b1 92 e8 bb 9e aa d9 3d f0 4e 97 be 89 27 02 3e
       -0.007097565 0.10628246 -0.29552412 0.12710394
0001d0 05 15 c2 be a0 27 de be a6 2a 5a 3e 85 ef 59 3e
       -0.37906662 -0.43389606 0.21305332 0.21282776
0001e0 d0 98 9f 3d 3d 9f c5 be da 9e a1 3e b5 65 9a 3e
       0.077928185 -0.38598052 0.31566507 0.3015572
0001f0 43 c7 af be d1 0a 83 be 71 a0 38 be cc fa a8 bd
       -0.34331712 -0.2559419 -0.18029954 -0.08250961
000200 6d 1c ae be 0d fb ba bd 8d 22 b1 3e bf 35 d8 be
       -0.34006062 -0.091299154 0.34596673 -0.42228505
000210 2b 97 96 3e e2 ac 7e be 2c 8c e0 3c 14 6d 97 be
       0.29412207 -0.24870637 0.02741059 -0.29575408
000220 f1 4e 65 3e 6d 2c 84 be 5a e0 85 be 1b 50 b0 3d
       0.22393395 -0.25815144 -0.2614773 0.08609029
000230 30 51 14 3e bd 2f 90 be e2 78 f9 bd e2 73 76 be
       0.14484096 -0.2816142 -0.1218126 -0.24067643
000240 dd ec f8 3c 4d 70 a7 3d 4a eb 93 be 1c 30 fd bc
       0.030386383 0.081757165 -0.2889045 -0.03090673
000250 fa 55 a1 be 79 fd c3 be 9f 86 90 bb e7 5f 33 be
       -0.31510907 -0.38279322 -0.0044105793 -0.17517053
000260 9d 98 15 be 16 43 b0 be ac a7 db be 0d 4e 04 be
       -0.14608999 -0.34426183 -0.4290136 -0.12920399
000270 bc 04 46 3e 72 5e 5f be 43 c5 34 be 02 59 a9 3e
       0.19337744 -0.21813372 -0.17653374 0.3307572
000280 11 45 a4 3e b2 4a a8 3e 69 63 b6 3c e5 6c c6 3e
       0.32083943 0.32869488 0.0222642 0.38754955
000290 22 eb 8f 3e 18 5b 97 3e dc 49 bf 3c 45 2e f9 bd
       0.2810908 0.29561687 0.023350649 -0.12167028
0002a0 fd fa c5 bc 42 3e b5 be 24 c3 37 3e c0 6f 86 be
       -0.024167532 -0.3539906 0.17945534 -0.26257133
0002b0 33 f2 a5 be 42 01 c4 3e 23 90 83 bc ac 9a 23 be
       -0.32411346 0.3828221 -0.01605994 -0.15976971
0002c0 4c ab a7 3d 01 5b c4 bd 0f 1a 8a 3e 54 d4 02 3e
       0.08186969 -0.0958767 0.26973006 0.12776309
0002d0 0f c2 2a 3e aa 5c 1a 3e d3 82 24 3d d8 b5 ad be
       0.1667559 0.15074411 0.040163826 -0.33927798
0002e0 be 9c 24 3d f0 6d b1 3e 8c 91 bc be 58 d4 2f be
       0.040188543 0.34654188 -0.36829793 -0.17170846
0002f0 8f 9e bc bd a0 f5 34 be 6e 95 69 3e 34 a3 3a be
       -0.0920993 -0.17671824 0.22810909 -0.1822632
000300 2d 97 28 be ff 8a c6 3d b5 f1 06 3e fa 47 60 bd
       -0.16463919 0.0969448 0.13178141 -0.054756142
000310 76 0a 68 bd dc 13 d9 3e cf f1 c2 be 53 78 c4 3e
       -0.0566506 0.42397964 -0.3807511 0.3837305
000320 c3 39 f1 3d 51 11 93 3d c3 37 8a be a8 82 c3 be
       0.11778595 0.07181037 -0.26995668 -0.3818562
000330 12 0a ed be d2 c3 0b be 88 d0 98 3e 46 0a 2d be
       -0.46296746 -0.13648918 0.29846597 -0.1689845
000340 60 58 3b bc 21 5e 0f be db b3 bb 3e c5 5a 30 3d
       -0.011434644 -0.14000751 0.36660656 0.043055315
000350 8c fa 18 3d 27 7e 36 be 0c a7 bc be a0 f6 90 3e
       0.037348315 -0.17821561 -0.36846197 0.2831316
000360 85 b6 36 bd 7f 5f 74 3e 2f d2 c6 be d0 c0 bf bd
       -0.044607658 0.23864554 -0.38832232 -0.09362948
000370 79 df 09 3e 84 e8 85 bc c7 6c 97 bc da 95 12 3e
       0.13464154 -0.016346224 -0.018484486 0.14314976
000380 ae be 4c be 3d 63 f5 3d fc 47 7a 3e f3 72 f5 bd
       -0.19994614 0.11981819 0.24441522 -0.119848154
000390 6e 3b a5 3e 4a cf 4e 3d 78 5b 2d bc c1 dc 56 be
       0.32271904 0.050490655 -0.01058089 -0.20982648
0003a0 bc 04 64 3e 7a 8c 79 3e fe 8a b1 bd 47 d9 a7 3e
       0.22267431 0.24369994 -0.08669089 0.32782957
0003b0 65 a1 a6 3d bb 09 c5 3d 7b 11 a9 be d6 d2 2e bd
       0.08136252 0.096209966 -0.3302115 -0.042681538
0003c0 95 ce 71 be 8a 22 83 3e e5 76 15 be dc e1 6f be
       -0.23613961 0.2561229 -0.14596136 -0.23426002
0003d0 12 7a c9 be f5 8e be be e9 ee bf 3e cb 22 a2 3e
       -0.39350945 -0.37218443 0.3748696 0.3166717
0003e0 e6 4e ac be bf e8 4e 3e ee 67 6f 3c 1c 05 c6 bd
       -0.33653945 0.20205973 0.014612181 -0.09668943
0003f0 42 68 87 be aa 9b 0a 3e 35 ce a9 3e d4 82 b2 be
       -0.2644673 0.13535944 0.33165136 -0.3486544

fc0.bias f4 [100]
000000 29 6f b1 3e 14 47 b2 be 1c e7 d7 3e ea cf bc 3e
       0.3465512 -0.34819853 0.4216851 0.36877376
000010 8e d2 69 3d 72 9e 9e be b6 54 74 3e c9 b5 06 bd
       0.057085566 -0.3098026 0.2386044 -0.032888208
000020 c8 24 e5 3d a6 2f 57 be 47 25 62 bd 80 80 2e 3e
       0.11188656 -0.2101427 -0.05521133 0.17041206
000030 83 94 16 be 82 24 84 3e ec 19 3a 3e 34 c4 9e 3e
       -0.1470509 0.25809103 0.18173951 0.31009066
000040 f5 46 af 3e e9 fb 74 bd 88 9e 2e 3e 16 9b ba 3d
       0.34233823 -0.059810553 0.17052662 0.091116115
000050 f9 05 d3 bd 41 1f 18 3e cc 2f 04 be 37 05 58 3e
       -0.103038736 0.14855672 -0.12908858 0.2109574
000060 97 3c af 3e b1 06 af 3a 6a 8b 22 3e 53 61 8d 3c
       0.34225914 0.0013353435 0.15873495 0.017258322
000070 20 0b 24 3e d2 36 50 be 6f 67 53 be d2 9c 2d 3e
       0.16019869 -0.20333412 -0.20644926 0.16954353
000080 ac 1a ca 3e d7 0d c8 be 1e fa a3 be 97 4e d4 3e
       0.39473474 -0.3907306 -0.32026762 0.4146621
000090 ca 39 8b 3e 52 3c 54 3e 1c 47 9b be 5e f7 99 3e
       0.27192527 0.20726135 -0.3032769 0.3007154
0000a0 6c 42 2c 3e ff ee 7f 3e d1 d0 a1 3e cf e1 80 be
       0.16822213 0.24993514 0.31604627 -0.25172278
0000b0 7f 1a 3c 3e 5b 76 2d 3e 3d 76 f4 3c cb 63 98 3e
       0.18369482 0.1693968 0.029841537 0.29763636
0000c0 1f 6e 2f be 24 52 db be 3e e9 47 3e 3b 4c c8 be
       -0.17131852 -0.42836106 0.19522569 -0.3912066
0000d0 48 07 21 be 67 79 9a be 9d a4 04 be ca 06 6c be
       -0.15725434 -0.30170748 -0.1295342 -0.23049465
0000e0 5e f2 c1 3d 9e cc aa 3e 2e 48 04 bd 1a 79 b2 be
       0.09470056 0.33359236 -0.0322954 -0.34858018
0000f0 ce ad 0b 3e ac d8 c9 3e ec 15 db 3e cf c5 ad 3d
       0.1364052 0.3942312 0.42790163 0.084849946
000100 9a 0c a2 3c 9e ae 25 bd 94 e9 31 3e d5 85 6e 3e
       0.0197814 -0.04044973 0.17374259 0.2329324
000110 a7 32 99 be 1a 71 9b 3e 06 4d b1 bd 18 4f 45 3e
       -0.29921457 0.30359727 -0.08657269 0.19268453
000120 fb cb 7e be 08 4e 9b 3d c3 d5 9d be e9 f5 80 be
       -0.248825 0.07583243 -0.3082715 -0.25187615
000130 23 16 b7 bc 7d 40 02 be 51 e3 21 3e 16 15 b3 bd
       -0.022349423 -0.12719913 0.1580937 -0.08744256
000140 f8 c9 cb be c8 af 71 3e c0 6a 92 3d de 09 c8 3e
       -0.39802527 0.23602211 0.07149267 0.39070028
000150 b2 77 55 3e 63 53 3a be ad 97 be be 11 16 b3 3e
       0.20846441 -0.18195872 -0.37225094 0.34977773
000160 2f d2 54 3d 16 3d aa be 08 0c 7f be 7c b6 f5 bd
       0.05195826 -0.3324973 -0.24906933 -0.11997697
000170 8b fa 6f be 38 2d 4c be 6e 44 8d 3e 74 85 23 bd
       -0.23435418 -0.19939125 0.2759127 -0.039922193
000180 3c db 9f be 24 be ec be 84 75 b9 3d b2 67 0c be
       -0.3122195 -0.46238816 0.090556175 -0.13711432

conv1.weight f4 [100, 2, 1, 1]
000000 29 5a 35 bf 52 00 f9 be 03 53 88 3e d9 cf 95 be
       -0.708407 -0.48633057 0.26625833 -0.29260138
000010 11 e5 7d 3e a4 ed 34 bf 99 70 74 3d 37 f2 22 bf
       0.24794413 -0.7067511 0.059677694 -0.6365084
000020 35 96 1f bf 96 ae c5 3d 71 3e 79 3e d4 b3 77 3e
       -0.6233857 0.0965244 0.24340226 0.24189693
000030 8c 03 01 3f 49 43 c0 3e ea d6 1c 3f 16 7e 15 3f
       0.5039604 0.37551335 0.6126543 0.58395517
000040 78 4f ab be d9 38 f7 3e 87 ea 40 bd 24 6b 85 bb
       -0.33459067 0.4828556 -0.047098663 -0.00407161
000050 3b ed 49 3e 43 04 5e 3e ba 13 fb be 3e 07 ba be
       0.19719402 0.21681313 -0.49038488 -0.3633365
000060 4f 53 20 3f 61 5b 77 3e 22 e0 21 bf 0f 27 b9 bd
       0.6262712 0.24155952 -0.63232625 -0.09040653
000070 0b af ff bc d2 e1 91 be 06 cf e3 be 53 7e d5 3e
       -0.031211397 -0.284926 -0.44493884 0.4169794
000080 0a 70 d6 be 76 6c 9c 3e c7 fa f0 3e e1 5c d6 be
       -0.41882354 0.305515 0.47066328 -0.41867736
000090 05 7a 29 3d 27 e0 b4 be 09 3f b6 be 32 77 23 3e
       0.041376133 -0.35327265 -0.35594967 0.15963438
0000a0 5c 64 2a bf ea 45 5f bd b5 13 b8 3e 67 b8 a6 3e
       -0.66559386 -0.054510035 0.35952535 0.32562563
0000b0 76 ab 09 3f bc 69 b9 3c 98 42 e3 3e 12 b0 06 3f
       0.53777254 0.022633426 0.44386744 0.5261241
0000c0 bc f5 c2 bd 2e fc 19 bf 00 a2 9a be 53 7b ca 3e
       -0.09519526 -0.6015042 -0.3020172 0.39547214
0000d0 63 1a 37 bf 38 99 3b 3d 13 71 98 be b7 68 ee 3e
       -0.7152464 0.045800418 -0.2977377 0.46564266
0000e0 78 65 0a bf 92 10 04 bf c6 28 ff 3e 61 07 46 3e
       -0.5406108 -0.51587784 0.49835795 0.19338752
0000f0 29 34 8b be 6c d9 00 bf 11 c5 e7 be ec 7b 10 3f
       -0.27188233 -0.5033176 -0.45267537 0.5643909
000100 7b 3a 30 bf f2 96 89 3e 84 39 92 3e 4c 8d ce 3e
       -0.68839234 0.26872975 0.28559506 0.40342176
000110 8b ed 9f 3d 5e d0 df 3e 0f a6 03 be b6 b0 e0 3d
       0.078089796 0.4371366 -0.12856315 0.10971205
000120 3d ed 22 3d 8a bd 23 3f a7 38 94 be 25 7e a5 3e
       0.03977703 0.6396109 -0.28949472 0.32322803
000130 f8 a0 23 bf 01 19 70 bd 2b b4 40 be 59 0d 82 be
       -0.63917494 -0.058617596 -0.18818729 -0.25400808
000140 4c 18 cb be 5a f4 29 3f c2 8f cc 3d 0b 6c 09 bf
       -0.39666975 0.66388476 0.09988357 -0.53680485
000150 1b 83 08 be bb 2d a7 be 20 39 b8 3e 27 74 ff be
       -0.13331263 -0.32652077 0.35981083 -0.49893305
000160 26 f9 25 bf 79 e8 6e ba f4 87 e3 3d b8 49 e1 be
       -0.64833295 -0.00091136206 0.111099154 -0.44001555
000170 67 e2 6b be d7 b6 d6 bd ae 5c 6d be 42 f3 b6 be
       -0.23035584 -0.10484093 -0.23179886 -0.35732466
000180 1f 34 83 be f0 5e b0 be 80 56 1c 3f 5d 9e c1 3e
       -0.25625703 -0.34447432 0.6106949 0.37816134
000190 dc 1b 1a 3e b7 73 0c 3e 16 3d 15 3f 99 df 23 3f
       0.1504969 0.13716017 0.58296335 0.6401306
0001a0 a7 63 0c 3e 50 03 93 be 66 2e 20 be 05 8e 3f 3e
       0.1370989 -0.28713465 -0.156427 0.1870652
0001b0 44 3c 01 3f ac 4d cb be f2 11 20 bf 02 c0 b9 3e
       0.50482583 -0.39707696 -0.6252738 0.36279303
0001c0 f9 2d c8 3e 5e 19 c6 3e 35 05 81 3d 66 6f c6 3e
       0.39097574 0.3869123 0.06299821 0.38756865
0001d0 12 17 80 3e f3 03 1b 3f 25 31 30 bf c0 39 c2 bd
       0.250176 0.605529 -0.6882499 -0.09483671
0001e0 6c 47 83 3d 42 d4 0e 3f ca 2a e1 bd 36 56 aa 3d
       0.06410107 0.5579263 -0.109944895 0.08317225
0001f0 bf 12 e1 3e c0 d0 05 bf 36 b4 a2 bd a3 04 f8 bd
       0.43959615 -0.5227165 -0.07944529 -0.121102594
000200 3a 5c 8d be a7 c5 09 bf f0 6b f3 bd 50 d2 4c 3e
       -0.27609426 -0.5381722 -0.11885822 0.20002103
000210 15 2c 28 3f 36 30 80 be 06 e6 de be 7d fb 43 3e
       0.65692264 -0.25036782 -0.4353487 0.19138904
000220 f4 de a3 bd ec 98 00 bf c1 ac 85 3e 64 59 8b be
       -0.08001509 -0.5023334 0.26108363 -0.27216637
000230 40 e8 8b be 8f 28 53 3e 05 1e dd be 1c 0e 32 3f
       -0.2732563 0.2062094 -0.43186966 0.6955278
000240 2d 1d fa 3d 42 b3 2a 3f c8 64 22 be d3 3c 48 be
       0.12212596 0.66679776 -0.15858757 -0.19554453
000250 da 24 ab be 62 7d 1e 3f 72 21 c8 3e 25 c1 c9 be
       -0.33426553 0.6191007 0.39088017 -0.3940517
000260 ab 55 16 3f 25 43 ed be ca 4f a7 be 81 29 a9 bd
       0.5872447 -0.4634029 -0.32678062 -0.08259869
000270 0c ec cd be 6c ac 25 bc 4e a6 04 3e b4 f5 d5 3e
       -0.40219152 -0.010111909 0.12954065 0.4178902
000280 41 ca 9c 3e b9 37 ec be 49 bc 9e be 15 f1 84 3e
       0.30623057 -0.46136263 -0.31003025 0.2596518
000290 ed 6b 07 bf 16 ec 1c 3f 56 4c 07 bf d2 40 0b bf
       -0.52899057 0.6129774 -0.52850854 -0.5439578
0002a0 76 c5 cf 3e 0a 86 37 3e d3 14 14 3f c8 cd d4 3e
       0.40580338 0.17922226 0.57844275 0.4156325
0002b0 12 88 fe 3e 9e 9e ac 3e f0 24 00 3f 3a 6e 11 3f
       0.49713188 0.33714765 0.5005636 0.5680882
0002c0 f2 32 a0 3e 63 de 2f 3f 70 dc 18 3f 35 d1 a3 3c
       0.31288868 0.6869871 0.5971136 0.019997219
0002d0 48 f2 fe be f4 ba 1e bf f7 e8 a6 3e a1 5e bb 3d
       -0.4979422 -0.6200402 0.32599613 0.091489084
0002e0 70 10 79 bb 81 67 87 be e1 37 07 3f ab 88 11 bf
       -0.0038004182 -0.26446155 0.5281964 -0.56849164
0002f0 df ba 04 3f c0 44 d8 3e 7d b5 20 bd 20 23 80 bb
       0.5184764 0.42239952 -0.03923558 -0.003910437
000300 a1 08 69 3e 4a a8 24 3f b7 31 e0 be 4d 58 84 3e
       0.22757198 0.6431929 -0.4378793 0.25848618
000310 79 ad d3 be c7 7d 1e be f2 e6 99 3e 0d f1 af 3e
       -0.41343287 -0.15477668 0.3005901 0.34363595

conv1.bias f4 [100]
000000 ad 27 79 3e 87 ce c7 be 1f 04 5e 3e a3 3d d2 3e
       0.24331541 -0.39024755 0.2168126 0.4106265
000010 c8 a0 3c bd 67 ed 0b be 7c 53 9d be 8b de 2c bf
       -0.04605177 -0.1366478 -0.30727756 -0.67527074
000020 74 33 19 bf 0f 17 ab 3d 14 88 63 bd 6f 15 e1 3e
       -0.59844136 0.083540075 -0.055549696 0.43961665
000030 07 8d 04 bf 51 e8 da 3e 7e 35 a5 3d 55 0e 09 bf
       -0.5177769 0.42755368 0.080668435 -0.53537494
000040 ce a5 2b 3f 7b 3f 9d 3e 46 2e 26 3e 27 6c 07 3f
       0.6704987 0.30712494 0.1622859 0.528994
000050 28 e2 05 be c1 c5 27 be e4 d6 00 3e 97 72 63 be
       -0.13074553 -0.16384031 0.12581974 -0.22211681
000060 55 b8 16 bf f1 18 13 bf 41 6d d6 bd 81 4e aa be
       -0.5887502 -0.5745993 -0.10470057 -0.3326302
000070 d0 22 a8 be 5c 45 7e be da a4 c0 be 7a 8c 8f be
       -0.3283906 -0.24831146 -0.37625772 -0.28036863
000080 6f ad 39 be 7f bb 2d 3f 90 67 f8 be 8a 56 8a 3e
       -0.18132566 0.6786422 -0.48516512 0.2701915
000090 06 bd 84 3e 9c 5f 0d 3f e2 dd 7c bd 8b 82 f2 be
       0.25925463 0.55224013 -0.06173504 -0.4736522
0000a0 32 d5 1f bf ee 29 06 3f 3f 6b 40 3f 4e db 09 3f
       -0.62434685 0.5240773 0.75163645 0.5385026
0000b0 f3 07 12 bf 2a 29 83 3e b8 71 96 3e cc 11 90 3d
       -0.5704338 0.25617343 0.29383636 0.070346445
0000c0 26 16 3b 3f a9 8f 0f bb d2 98 85 be bd d5 9b bd
       0.7308067 -0.0021905696 -0.26093155 -0.07609127
0000d0 8c 5e 0f 3f 4f b1 d5 3c 26 b4 0a 3f 55 9d 05 bf
       0.5600364 0.026085524 0.54181135 -0.52193195
0000e0 6c c9 89 3e 40 a5 3e 3e a4 fe 52 be ae c0 12 bf
       0.26911485 0.18617725 -0.2060495 -0.57325256
0000f0 b6 2b 48 bd 98 a7 e7 be c7 74 fa 3e 9c c7 8a 3e
       -0.04886981 -0.4524505 0.4891722 0.27105415
000100 77 63 d2 3e bc c1 10 be 53 9d 23 3f da e6 3a 3f
       0.4109151 -0.14136404 0.6391193 0.730085
000110 84 18 0c be 5c b7 cf be 04 0c 14 bf 15 90 1b 3f
       -0.13681227 -0.4056958 -0.57830834 0.60766727
000120 62 c3 07 3f 8a 5f a6 3d 1c ff c8 be 08 fe 33 3f
       0.53032506 0.081236914 -0.39257133 0.70309496
000130 d6 63 ac be f8 b5 f8 be eb 87 ce be e8 6d e7 be
       -0.3366992 -0.4857633 -0.40338072 -0.4520104
000140 80 40 33 3f 51 dc 2a bf 94 ff 32 3e 11 76 d8 3e
       0.70020294 -0.66742426 0.17480308 0.42277578
000150 07 5f cf bd 5c 93 ae bc ea 2c c8 3e d4 b9 b5 3d
       -0.10125547 -0.0213105 0.39096767 0.088733345
000160 96 eb 19 bf 3f eb dc bc 00 4f c7 3e 9e b1 cc be
       -0.601251 -0.026967643 0.3892746 -0.3997926
000170 53 41 28 3e f9 1d b9 3e f5 93 38 3f a5 78 fc 3e
       0.16431169 0.3615568 0.72100765 0.49310794
000180 80 0f 11 3f c1 5e 00 3f f5 d1 e1 3e ee 82 21 bf
       0.56664276 0.50144583 0.44105497 -0.6309041

w0.weight f4 [100, 2, 1, 1]
000000 3b da 26 bf b6 fc 34 be 69 7e 2a 3e 22 87 b0 be
       -0.65176743 -0.17674527 0.16649784 -0.34478098
000010 56 4c 0c 3f f1 3f 57 be d3 c6 ee 3d 0c 04 15 be
       0.5480398 -0.21020485 0.116590165 -0.14552325
000020 64 89 3d 3d ad 89 95 3d 90 cc 07 3d bd ad 24 3f
       0.046273604 0.0730165 0.03315407 0.64327604
000030 10 61 1b bf fc b3 8f be ed 25 a5 3e 75 8b ff 3d
       -0.6069498 -0.28067005 0.32255498 0.12477771
000040 8c e6 28 3f 84 d4 1d bf 65 f5 67 3e af 5a 6e bc
       0.65976787 -0.616524 0.22652204 -0.014547988
000050 8e 3f b4 3e 0c ec 0e 3f d6 e7 da be 8b 81 ce bd
       0.35204738 0.5582893 -0.42755002 -0.10083302
000060 7a cc 5b 3e bb d4 c9 3e 33 5c 12 bf f8 fe 3a 3e
       0.2146472 0.39420113 -0.57171935 0.18261325
000070 51 85 89 be 24 88 d8 3e aa 61 99 3e 8f 3e 0c 3f
       -0.26859525 0.42291367 0.29957324 0.54782957
000080 8c 5c 22 3f 73 12 52 3e b7 b0 28 3e 08 39 2a 3e
       0.63422465 0.2051485 0.16473661 0.16623318
000090 ef d7 15 3f 84 35 2e be a5 bd 68 be da d4 52 be
       0.58532614 -0.17012602 -0.22728594 -0.20589009
0000a0 d7 f2 29 3f 6d b0 a4 3e 83 e2 5e be 04 ab 53 3e
       0.6638617 0.32165852 -0.21766095 0.20670706
0000b0 9e 29 2d 3f f7 1b 19 3f 73 65 f5 3e 57 ba 07 3f
       0.6764163 0.59808296 0.47928962 0.5301871
0000c0 fc c5 28 3f 57 4b ff be eb 7d c9 bd 61 e0 bc 3e
       0.659271 -0.49862167 -0.0983847 0.36889938
0000d0 7b 75 fc be c1 41 2d be d6 79 08 3f 19 57 14 3f
       -0.4930838 -0.16919614 0.53310907 0.579454
0000e0 47 7d 2e 3f 22 02 05 3f 8a 86 99 be aa 1b d3 3d
       0.6815991 0.5195638 -0.29985458 0.10308011
0000f0 03 99 0d bf c0 e9 f0 3e e0 3d ec 3c 7f dc 1f 3e
       -0.553116 0.47053337 0.028838098 0.15611456
000100 32 6a c9 bd 58 af 21 be 3a 76 d4 3e 09 67 eb bd
       -0.09834708 -0.15789545 0.4149645 -0.11494262
000110 41 ac 1a bf cb c8 6c 3e db bf 1b 3e 58 10 e2 be
       -0.6041909 0.23123471 0.15209906 -0.44153094
000120 e3 19 f8 3e 47 dd be 3e 6f 17 1b bf 89 e0 22 3f
       0.4845725 0.37278196 -0.6058263 0.63623863
000130 34 be 35 bf 54 9d 09 bf 6e 9b 24 be 2c 6c b1 be
       -0.7099335 -0.5375569 -0.16074917 -0.3465284
000140 b8 30 8b 3e 33 ff 14 3f 51 12 0c bf 3c fd 4a be
       0.27185607 0.58201903 -0.5471545 -0.19823164
000150 f4 41 c8 be 4f 64 97 be a4 6b 94 be 8f b6 76 be
       -0.39112818 -0.29568717 -0.28988373 -0.24093078
000160 7d 78 40 3e 1c dc dc 3e 18 7b 95 be 92 84 36 bf
       0.18795963 0.4313668 -0.29195476 -0.71296036
000170 02 be 45 be 47 a7 b5 bd 59 04 e9 3e 67 d3 e0 be
       -0.19310763 -0.08869796 0.4551113 -0.43911287
000180 67 bf 8e 3c e6 f5 33 bf 2e 4a 1b bf ba 10 0f 3f
       0.017425252 -0.70297086 -0.60660064 0.558849
000190 1f bf 00 bf 91 c0 c1 3e 3b cc 27 3f 2b 74 e6 be
       -0.5029163 0.3784223 0.65546006 -0.45010504
0001a0 b3 65 04 bf 1f 22 d0 3e d4 a3 c2 3e 5b af e8 be
       -0.5171768 0.40651032 0.38015616 -0.45446286
0001b0 8c 60 38 3e d3 36 a9 be 19 4b 28 bf f8 6a 51 be
       0.1800558 -0.3304964 -0.6573959 -0.20450962
0001c0 54 35 00 bf d6 55 40 be 0a 0a ab 3b 65 9b 85 3e
       -0.5008137 -0.18782744 0.0052197026 0.2609512
0001d0 e1 42 26 3f 8a 85 06 bf 27 4e 89 bc 1a 73 5f 3d
       0.649458 -0.52547514 -0.016760899 0.05455313
0001e0 6d d0 32 3f 04 65 e6 3d 51 65 31 3f 17 d3 83 3d
       0.6984928 0.11249736 0.6929522 0.064367466
0001f0 9b d3 90 be f2 db e5 3e e7 79 1b 3f e0 e9 05 bf
       -0.28286442 0.44894367 0.60732883 -0.5230999
000200 d5 cd 63 3e 08 c0 28 be 95 63 35 3f dc 33 1b 3f
       0.22246487 -0.16479504 0.70855075 0.60626006
000210 3e de d0 be 4d 9c eb be 27 ce f8 be d9 54 0d 3e
       -0.40794557 -0.46017686 -0.48594782 0.13801898
000220 a4 1e 02 bf 4d 67 07 bf 4b a0 0f 3d 43 18 2a 3e
       -0.50828004 -0.52892 0.035064977 0.16610818
000230 f7 85 c8 3d 8d 19 1c 3e e8 11 a2 be e9 ce 06 3f
       0.09791177 0.15244122 -0.31654286 0.5265947
000240 d6 01 01 3f 1b 77 46 be 38 79 4d be aa e1 d2 3e
       0.50393426 -0.19381373 -0.20065773 0.41187793
000250 d0 ea db be a0 9e 9b be a2 18 fd 3d e5 7a 23 bf
       -0.42952585 -0.3039446 0.12358214 -0.638594
000260 a0 d1 d3 3e 47 8e d2 be bf 32 38 3e 5d e8 98 bd
       0.4137087 -0.41124174 0.17988108 -0.07466195
000270 91 10 86 3e cb 77 28 bf 41 e2 10 3e 5b 35 0b 3b
       0.26184514 -0.6580779 0.14148809 0.002124152
000280 a2 14 0a be 0d 78 bd 3e fd dc 03 bf 80 9e ed be
       -0.13484433 0.37005654 -0.51509076 -0.46409988
000290 d7 f2 3d 3d 23 f7 50 bd 40 7c 02 3d 49 a7 29 bf
       0.04637417 -0.051016938 0.031856775 -0.6627088
0002a0 20 d5 25 3e 4f bd 80 3c a3 8a 9a 3d ea fe d6 be
       0.16194582 0.01571527 0.07545974 -0.4199136
0002b0 a0 0b ab 3e be b7 22 bf 24 6e a9 3e 7d b2 66 be
       0.33407307 -0.6356162 0.33091843 -0.22529025
0002c0 6d 25 e7 3e 0d f9 fd be ae b6 00 3f 50 4f f1 be
       0.4514574 -0.49604073 0.5027875 -0.47130823
0002d0 25 73 36 bd 8f dc bc 3c 27 ee 1e bf 5a 99 0e bf
       -0.044543404 0.02305439 -0.6208214 -0.55702746
0002e0 e7 fc 16 be d9 ef 4c be ea 14 82 be 18 a8 12 3f
       -0.14744912 -0.2001337 -0.2540658 0.5728774
0002f0 d9 25 2b 3f 3e bc 63 3e 91 11 22 3d 96 6c 0f bf
       0.66854626 0.22239777 0.039567534 -0.56025064
000300 7e 6e d1 3d b6 75 ed 3e a6 a5 8e be 2d 48 1a bf
       0.10226153 0.4637887 -0.27860755 -0.6026638
000310 45 85 bd 3e e6 f5 29 3f 1c 4e 43 be 19 51 0a bf
       0.3701574 0.66390836 -0.19072765 -0.54029995

w0.bias f4 [100]
000000 a3 5e f4 3d cd b3 1a bf 78 5e c8 3e e7 35 0b bf
       0.11932113 -0.60430604 0.39134574 -0.54379123
000010 21 d8 4d be a0 6e dd 3e db f2 ea 3c d9 eb 03 bf
       -0.20101978 0.43248463 0.028680256 -0.5153175
000020 41 5a d8 3e 5d 04 0e bf 88 3f 49 be 26 94 0e bf
       0.42256358 -0.5547541 -0.19653141 -0.55694807
000030 83 a4 db 3e a1 d5 73 bd f2 ee 6b bd 58 25 fc 3e
       0.4289895 -0.059529904 -0.057600923 0.4924724
000040 7a e8 4d be 87 5d 90 3d 40 df 95 bd 45 95 80 bc
       -0.20108214 0.07049089 -0.07317972 -0.015696177
000050 86 38 2f 3f 76 55 22 3f 72 54 dd be f3 22 38 be
       0.6844562 0.63411653 -0.4322849 -0.17982082
000060 dc a0 f8 be 48 05 f2 be 5b 5d 36 3d 55 0d 9b 3e
       -0.48560226 -0.47269654 0.044522624 0.3028361
000070 f9 a8 1b 3d 1f b5 f5 3e 37 32 dd be 77 1e 0c 3f
       0.03800294 0.47989747 -0.43202373 0.54733986
000080 91 1c 07 bf 5b 6e 00 3f 93 b6 be be 45 fe 5f 3e
       -0.52777964 0.5016839 -0.37248668 0.2187434
000090 b6 03 b2 be 2b 77 0a 3e ed 29 89 3c 63 60 aa 3e
       -0.34768456 0.13522021 0.016743625 0.33276662
0000a0 d3 c0 c5 3e 7b 55 02 bf b0 ab 1c 3e c6 f6 bb 3d
       0.38623676 -0.5091168 0.15299869 0.09177928
0000b0 dc 13 6b be 51 43 f2 be 1d ec 37 3f 87 16 20 bf
       -0.22956795 -0.47316983 0.71844655 -0.62534374
0000c0 58 74 63 3e 0c 48 e3 3d e8 15 11 bf c6 a8 9d 3e
       0.2221235 0.11097726 -0.5667405 0.30792826
0000d0 d8 5b 4a 3e 63 97 38 3d 45 5b 74 be 4c de c0 3e
       0.19761598 0.04506625 -0.23862942 0.376696
0000e0 a7 80 22 3e 2e 58 dc be 43 e7 ff 3e c1 a9 f3 3e
       0.1586939 -0.43036026 0.49981126 0.4759045
0000f0 93 90 33 3e 29 8d 2e bf 44 c5 1e bf d9 61 21 bf
       0.1753562 -0.68184143 -0.62019753 -0.6303993
000100 1e c5 08 3e 33 ef 79 bd 03 b1 3d bd f2 25 ac 3e
       0.13356444 -0.061019134 -0.04631139 0.336227
000110 01 a9 31 3f e5 c9 22 be 17 98 a8 bd 14 6f 25 3e
       0.69398504 -0.15897329 -0.08232134 0.16155654
000120 4a 67 00 3f e5 d5 37 bf 17 f4 e5 3e 35 e3 e8 be
       0.50157607 -0.7181075 0.44912788 -0.45485845
000130 e1 70 26 3e 6e a1 43 bd 7a b5 db 3e 02 3f 61 3e
       0.16253997 -0.047761373 0.42911893 0.21996692
000140 36 59 1b 3d f9 e4 e9 be 6c e5 e0 bd 76 9a 99 be
       0.037926875 -0.45682505 -0.10981259 -0.30000657
000150 95 25 16 bf d4 12 2d 3f 8f fc 3c 3f fe d5 58 be
       -0.58651096 0.67606854 0.73822874 -0.21175382
000160 42 67 fe be 63 d8 aa 3d 9e 8e 7c be 38 e3 c5 3d
       -0.49688154 0.08342054 -0.24663779 0.09662479
000170 a1 e0 47 be 52 b2 c0 3e 71 fd ba 3e 89 08 35 3d
       -0.19519283 0.37636048 0.36521485 0.044197593
000180 25 a2 32 bf ce 25 ec 3e d0 73 29 bf 58 f7 1f 3f
       -0.6977866 0.46122593 -0.6619234 0.6248679

fc1.weight f4 [128, 100]
000000 35 c2 6b bd 7a b7 f5 bd ef de 92 bd d0 a4 fe bc
       -0.057558257 -0.11997886 -0.071714275 -0.031084448
000010 f5 58 5c 3d 3b 14 16 3c 0d 2f 83 bc 0a 2a 76 bd
       0.053795774 0.009160097 -0.016013646 -0.060098685
000020 44 ef 15 3d 89 bb c5 bd 04 19 ab bd 08 54 db 3d
       0.036605135 -0.0965491 -0.08354381 0.10709387
000030 59 99 46 bd 09 cc 89 3d 54 2f 27 bd 71 b8 b3 bd
       -0.048486087 0.0672837 -0.04081662 -0.08775414
000040 3b cd 6d 3d 0c 63 c8 bd 4c db 58 bd 01 ae db 3d
       0.05805705 -0.09784517 -0.052943513 0.10726548
000050 fe dc 4a 3d 29 0f e5 bc 72 72 81 bd 18 56 95 3d
       0.04952716 -0.02796133 -0.06320657 0.07291812
000060 59 90 a3 3c 2c 79 d4 bd 4f c7 8c bd 05 eb ef 3b
       0.019966291 -0.10374674 -0.068739526 0.0073217177
000070 3c 09 58 3d 43 8a 20 be e4 c1 86 bd 6c 0f 36 bd
       0.05274318 -0.15677743 -0.065799505 -0.0444483
000080 9f ef 04 bd 34 ae 94 3d f8 cc 0f 3d c0 c7 cf 3c
       -0.032455083 0.07259789 0.035107583 0.025363803
000090 e4 4b 76 bc 0e cf d0 3d ab fa 01 3d 37 de 0b bd
       -0.015032742 0.101957425 0.031733196 -0.034147467
0000a0 c9 8b b6 bd 9c 11 d8 bc 39 3f 83 3d 3a b2 51 bd
       -0.08913381 -0.026375584 0.06408543 -0.05119536
0000b0 57 9b bd 3d be 43 ba bc 15 e2 f0 3d b3 e1 59 3d
       0.09258144 -0.02273738 0.11761872 0.05319376
0000c0 8d f5 8b 3d 27 71 7a 3d f9 14 99 bc 9f 51 6b 3d
       0.068339445 0.061143067 -0.018686758 0.057450887
0000d0 52 f3 e1 3c 91 d0 65 bb e1 b6 12 be 30 a1 82 bd
       0.027581844 -0.0035066942 -0.14327575 -0.063784
0000e0 d9 75 30 3d 90 2e 9f 3d a5 3f 4f 3d d9 22 68 3c
       0.04308114 0.07772553 0.050597806 0.014168465
0000f0 25 85 a8 3d 6a 68 3e 3d 5b 3b 18 be 8d 05 9f 3d
       0.0822852 0.046486296 -0.14866392 0.077647306
000100 3c 90 a2 bc 02 a6 cc bd e8 72 e4 bd bf 71 28 3d
       -0.019844167 -0.09992601 -0.11154729 0.0411241
000110 13 93 2c 3c 3b 9e 0c be 40 f3 c3 bd a9 d4 e5 3c
       0.010533112 -0.13732235 -0.09567881 0.028055506
000120 9d 22 38 3c 7a 01 4a 3d d0 e7 7a 3d e8 8a 04 bd
       0.011238721 0.049317814 0.06125623 -0.032359034
000130 c1 63 b5 3c 1f b0 04 3c 17 a7 fd 3c 45 a9 d5 bd
       0.022142293 0.008098631 0.030963464 -0.10432676
000140 49 b5 f9 bd 2b 32 bb 3c 2c 2d d4 3d c6 c3 06 3e
       -0.121927805 0.02285107 0.10360178 0.13160619
000150 17 49 a3 bd b4 07 04 be 7d d6 56 3d dc da c7 bd
       -0.07972925 -0.12893564 0.052450646 -0.09758541
000160 49 6a 80 bd d4 d5 7f bd 8f 55 55 3d 84 20 9d bd
       -0.06270272 -0.06245978 0.05208355 -0.076722175
000170 5d 96 33 3d 82 cf 06 3d 6d ab 3c 3d cb 81 85 3c
       0.04384457 0.03291274 0.046061922 0.016297242
000180 36 cc ca bd d3 a5 cb 3d 5a 69 c8 3c 28 e4 ca bd
       -0.099022314 0.09943738 0.024464298 -0.099067986
000190 6d 13 97 bc 71 de b7 3d 40 d2 99 bd 71 f4 b9 bc
       -0.01844188 0.08977974 -0.07510805 -0.022699567
0001a0 b2 0d cc 3d b6 a8 65 3d c5 7b b4 bd ca b4 35 bd
       0.0996355 0.0560691 -0.0881267 -0.044361867
0001b0 dc 78 a8 3d e2 5e a4 bb cd a2 39 bd 87 6f c1 3d
       0.08226177 -0.0050161937 -0.045321275 0.094451
0001c0 13 47 66 bd 8e e8 14 3e ba ad f7 3a d0 3e 9f bd
       -0.056220125 0.14541838 0.0018896379 -0.077756524
0001d0 4e a2 27 bd 29 42 1d 3d 8e 1b 92 bd d1 70 25 bd
       -0.04092627 0.038393173 -0.07134162 -0.040390793
0001e0 23 b2 55 3c b7 21 0a be ca b2 0d 3d b0 f3 28 bd
       0.013042959 -0.13489424 0.034594335 -0.041248024
0001f0 06 d4 bf 3d e0 91 e0 bd 9b 98 c4 3d 9a 29 9f ba
       0.09366612 -0.109653234 0.0959942 -0.0012143136
000200 64 02 82 bd ee 74 8c bd ce cb e0 3c 92 9b c9 3d
       -0.06348112 -0.0685824 0.027440932 0.09844126
000210 98 cd c8 3d 7a e4 7a bd 29 21 78 bd 92 e5 9b 3d
       0.09804839 -0.06125305 -0.0605785 0.076121464
000220 38 8d 08 3d 75 82 5e 3d 7f 9b b2 3d bf 13 f4 3d
       0.0333378 0.054323632 0.08721065 0.11917829
000230 5d 40 46 3d 6a 53 e8 3b fb 3f 40 3d 06 39 f0 bc
       0.048401225 0.007090022 0.046936017 -0.029324066
000240 b8 c7 21 bc c0 3b 06 bd 62 f1 a6 bc c7 01 aa 3d
       -0.009874277 -0.032771826 -0.020378772 0.0830112
000250 fa 10 4e bd 7f dd b9 bd c4 e9 09 be 81 6b 0e 3d
       -0.05030916 -0.0907545 -0.13468081 0.034770492
000260 ec fd 19 bd 2a c4 ca 3d 18 25 25 3d bb c9 98 bc
       -0.037595674 0.099006966 0.04031858 -0.01865088
000270 90 50 99 bb 6b 0c 03 bd 9a c6 80 3d 21 41 16 3e
       -0.0046787933 -0.031994265 0.0628788 0.14673282
000280 83 b4 b1 bd 77 f6 98 bd 19 e9 c1 bd 86 3a 8c 3d
       -0.08677008 -0.074688844 -0.09468288 0.068471
000290 f6 b2 36 bd d5 91 a0 3d e9 6f ac bd b5 8a b5 bc
       -0.044604264 0.07840315 -0.08419783 -0.022160867
0002a0 42 09 ab bc b6 0f c8 bd 9c 0d bc bd 5e 27 f1 3c
       -0.020878438 -0.097686216 -0.09182283 0.029437717
0002b0 2d 34 7c 3c c7 58 8b 3d 70 e7 f5 3c 28 64 f2 bd
       0.015393299 0.06804042 0.030017585 -0.118355095
0002c0 39 8d 80 bd 64 9a 06 bb 6c b9 8e 3d 4d 27 0d 3d
       -0.06276936 -0.0020538801 0.0696896 0.03446131
0002d0 c9 1a 08 be 0b 4a 56 bd cf 0c ad 3d 06 82 b9 3d
       -0.13291468 -0.052316707 0.08449709 0.09058003
0002e0 06 90 d1 3d a3 54 4e 3c 7e 7d 37 3d 66 e5 d1 3c
       0.102325484 0.012593421 0.044797413 0.025622081
0002f0 d3 2c 97 bd 9f 0e f0 bc 64 0a 10 bc 41 10 59 bd
       -0.073815964 -0.029303847 -0.00879154 -0.052994017
000300 de bb bf 3c 28 54 42 bd 9b f8 98 3d 41 70 36 3d
       0.023405012 -0.04744354 0.07469293 0.044540647
000310 4a fa d3 bd f4 0b b9 ba 21 ac 08 3c 8d a2 21 bc
       -0.10350473 -0.0014117942 0.00834182 -0.009865415
000320 7a c6 27 bd fd 6c 10 bd 86 09 d8 3d 7a e5 74 3d
       -0.040960766 -0.03526019 0.105486915 0.05978916
000330 98 ef 84 3d 3a 71 eb 3d 66 1c 59 bc 33 6a 16 3c
       0.064910114 0.11496206 -0.0132514 0.009180593
000340 2c 2d d2 3c b5 68 ed 3d ca d2 7b 3d 8e e0 ae 3c
       0.025656305 0.11592237 0.06148032 0.02134731
000350 cc 44 50 bd 7e a7 03 bc 06 21 98 bc 67 24 a4 3d
       -0.05084686 -0.008035539 -0.018570434 0.08014756
000360 fd c6 9a bc 1c 4f 8b 3d 46 ab 03 bd 4e f6 ae 3c
       -0.018893713 0.06802198 -0.03214576 0.021357682
000370 81 4b 04 bd db fa 22 3d 1b af 6c 3d 68 53 72 bd
       -0.03229857 0.039790016 0.05778418 -0.059161574
000380 14 16 3f bd 9e ef 68 bd 24 ad 61 3d 4e 3a 91 bd
       -0.046651915 -0.05686914 0.05509676 -0.07091199
000390 b7 d6 c8 3c 33 8a ec 3b 65 29 e1 bb 05 45 bb bc
       0.024516447 0.007218623 -0.0068713897 -0.02286006
0003a0 82 fa 6f 3d 7a 51 1a 3b ff 63 5c 3d 7f c1 09 3c
       0.058588512 0.00235471 0.0538063 0.0084079495
0003b0 e4 6a 85 3d be 45 81 bc 22 e9 05 3c 10 b1 33 3d
       0.065145284 -0.015780326 0.008173259 0.04387003
0003c0 1f 53 84 bd ca e9 b3 3b ae a5 52 bc fb e9 34 bd
       -0.064611666 0.0054905163 -0.012856884 -0.044168454
0003d0 4b 83 8c bd f4 ba 8f 3d 4c 78 83 bd a7 09 db bc
       -0.0686098 0.0701808 -0.06419429 -0.026738001
0003e0 37 c6 7b bd ff 0e fb bc cb 86 a5 bd 48 a1 9d 3d
       -0.06146833 -0.0306468 -0.0808235 0.076967776
0003f0 db 6c c2 3a 14 69 87 bd 9e 9d 90 bd a1 d9 61 3c
       0.0014833467 -0.06611839 -0.07061313 0.013784797

fc1.bias f4 [128]
000000 ca 86 05 3e 71 71 22 bc 03 d0 77 3d f8 18 02 3e
       0.13039699 -0.009914742 0.06050111 0.12704837
000010 18 64 5e 3d 06 25 af bd 3d 04 a6 3c 71 eb cb 3d
       0.054294676 -0.085519835 0.020265693 0.09957016
000020 40 1e bd 3d 46 02 b3 bd 48 78 8b 3d 9b 57 e1 bc
       0.09234285 -0.08740668 0.06810051 -0.027507594
000030 a7 79 ad 3b 74 f2 98 bd dc 8e cb 3d 52 9e 21 bc
       0.005294043 -0.07468119 0.09939358 -0.009864407
000040 76 7a fa bc c3 7f 35 3d 66 fa 15 be 47 96 94 3d
       -0.030575972 0.044311296 -0.146463 0.07255226
000050 72 6e 7b 3d b7 9e 85 bc f0 16 42 3d 16 0e 2e bd
       0.061384626 -0.016311033 0.047385156 -0.042493902
000060 df 99 ec 3c bb 9c ef 3c 6d bf ec bd 06 d4 1e 3d
       0.028881965 0.02924954 -0.11559949 0.03877642
000070 c3 06 14 bc bf e5 a5 3c 99 9f a4 bd f6 ce a7 3c
       -0.009034815 0.020251153 -0.08038253 0.020484429
000080 1f 86 ed bc 7f fa 3a bd 0e ca 8b 3d 1b b0 df 3d
       -0.028994618 -0.045649048 0.06825648 0.10922261
000090 52 f9 2f bd 80 35 24 bd 30 dd 97 bd 36 fb 35 3c
       -0.04296238 -0.040090084 -0.07415235 0.011107257
0000a0 6c ec 2a 3d e9 d5 11 3d d6 f1 45 3d 5d bd 96 bd
       0.041729376 0.03560439 0.048326336 -0.07360337
0000b0 08 ab 19 3d c8 7e 8d bc 91 50 17 3d 1b 63 c2 3c
       0.037516624 -0.017272368 0.03694207 0.023728898
0000c0 d8 2a e2 bb d2 33 d7 bc b9 5e cb 3d bd ac b0 3d
       -0.00690208 -0.026269827 0.09930176 0.08626697
0000d0 46 0a 9a 3c 19 b4 73 bc e9 d0 c6 bc 88 b8 5d bc
       0.018803727 -0.014874482 -0.024269538 -0.013532765
0000e0 ed 06 36 bd c5 5f 98 bd b7 9a 78 bd bf c4 85 3d
       -0.0444402 -0.074401416 -0.060694423 0.06531667
0000f0 6d c9 c1 3d e2 2e 8d 3d 7b b4 5a 3c f3 f5 ef 3d
       0.09462247 0.06893708 0.013348694 0.11716833
000100 d7 56 3c 3c 0b d3 16 bd 94 4c 42 bd 1d c1 f7 3d
       0.011495314 -0.03682236 -0.04743631 0.1209738
000110 63 06 1e 3e bf ad a8 bc 83 ac 54 3d a6 dc 34 3d
       0.15432124 -0.020590661 0.051922332 0.04415574
000120 37 d1 82 3c c8 97 3c 3d 74 85 ea 3d 4f ff bc 3d
       0.015968902 0.046043187 0.114512354 0.09228384
000130 1e 81 30 3e 4f 97 de 3d eb ab 75 3d a0 b4 49 3d
       0.17236754 0.108687036 0.059978407 0.049244523
000140 b5 41 68 3d 45 2c e2 3d 72 2d af bc ed 43 e3 bb
       0.056703288 0.110436 -0.021383975 -0.0069355876
000150 e2 89 df 3b 84 df e5 bb af 12 c5 3d 3b d1 bd bd
       0.006821857 -0.0070151705 0.09622704 -0.09268423
000160 b8 b2 e5 3d 57 0c bd 3d cc de e8 3d 3a 57 9e bc
       0.112157285 0.09230869 0.1137062 -0.019328702
000170 70 12 1f bd 80 7a 2c 3d f8 d5 8d 3c e3 62 67 3b
       -0.038835943 0.042109013 0.017313942 0.0035306744
000180 de da 9e bd d3 d0 98 bd b0 06 c7 3b a4 cc 9a 3d
       -0.07756589 -0.07461705 0.0060737953 0.07558563
000190 ad 5d 98 bd 7b 7e 61 3d 4f 19 e8 3d d7 c0 b0 3b
       -0.07439742 0.05505226 0.11332952 0.005394082
0001a0 af 16 f9 3d 2b 8b f5 3d 5a b5 b7 3d 06 1d 23 bd
       0.1216253 0.11989435 0.08970137 -0.0398226
0001b0 2b a1 1d bd 2a 04 0b bd ed 4b 2e 3d 9a 23 fd 3c
       -0.03848378 -0.033939518 0.042552877 0.030900765
0001c0 4b d0 be 3c ca 67 39 3d dd 7d c5 bd 92 6e c6 3d
       0.023292681 0.045264997 -0.09643147 0.09689058
0001d0 8c 6b 19 bb 5c 8c dc bc e2 26 1c 3d 9f 48 b8 bb
       -0.002341005 -0.026922397 0.03812302 -0.0056238915
0001e0 e2 88 83 3c 99 59 94 3d 0f 0e ee 3d d7 69 de 3d
       0.016056482 0.07243652 0.11623775 0.10860031
0001f0 5d 10 5b 3b 25 b5 9f bd 24 07 98 bd f2 c3 31 3d
       0.0033426501 -0.077982225 -0.07423237 0.04339976

fc2.weight f4 [64, 128]
000000 5e 66 af 3c b6 26 82 3d 27 b8 c8 3c d1 43 63 bd
       0.021411117 0.0635504 0.024501873 -0.055484597
000010 15 c0 5a 3d 01 57 0d bd 96 7a 2a bc 1b 0f c4 bd
       0.05340584 -0.0345068 -0.010405203 -0.09573194
000020 b4 39 8f bd cd 00 1b bd 62 a1 9d bd aa 40 9c 3d
       -0.06993428 -0.03784256 -0.07696797 0.07629521
000030 02 7f e6 bc 94 2c 75 bd 15 04 95 3d dc f5 a1 bc
       -0.028136734 -0.059856966 0.07276169 -0.019770555
000040 6f 52 74 3d 63 94 f0 3c dd 42 1c bd 0a 24 de bd
       0.059648927 0.029367631 -0.038149703 -0.10846718
000050 e5 b6 87 3d 8f 55 38 3d 3a 30 82 3d ff 9a bd bd
       0.06626681 0.04500347 0.06356855 -0.09258079
000060 3a ad 3e 3d db ca 76 3d b6 77 8c bc 5c c0 80 bd
       0.04655192 0.06025205 -0.017146926 -0.0628669
000070 2a 93 37 bd fd fb 67 bd a8 65 0a 3d db f9 dd bd
       -0.04481808 -0.0566368 0.033788353 -0.10838672
000080 cc 7c 43 bc 93 4d 19 3d ad 27 99 3d 23 76 9e 3d
       -0.011931609 0.037427496 0.07478271 0.077373765
000090 b0 a2 7f 3d a0 0b b9 3c 55 13 e5 b9 2b 8e 45 3d
       0.06241101 0.022588551 -0.00043692687 0.048231285
0000a0 c2 fc 1e bd e3 f2 62 3d 16 f5 16 3d 8c 33 b3 3d
       -0.038815267 0.055407416 0.036854826 0.08750066
0000b0 9e bf 59 bd 32 76 4d bd ba 6f b4 3d 39 bb 17 bd
       -0.053161256 -0.050161548 0.08810373 -0.037043784
0000c0 8a af b4 3c 1c 83 ab 3d ed 47 e4 bc b0 0e 01 bd
       0.02205636 0.083746165 -0.027866328 -0.031508148
0000d0 5d 36 c4 bc f1 02 b6 bd 8c 19 dd bb eb ef c1 bb
       -0.023951704 -0.0888728 -0.00674743 -0.005918493
0000e0 68 9d 5d bd 6b 00 14 3c 03 07 3c 3d 6d 5f 8e bd
       -0.054105192 0.009033303 0.045905124 -0.06951795
0000f0 c1 5d 29 3d 9d cc 76 3d 97 31 9f bc 2a 18 f6 3b
       0.041349176 0.06025373 -0.019432826 0.007510205
000100 ef e6 8d 3d ff 27 81 bd 81 45 43 bd 5a 60 03 be
       0.06928813 -0.06306457 -0.047673706 -0.12829724
000110 92 7d 5e bd 9b 1c 29 bc 52 43 bc 3d 09 00 a7 3d
       -0.054318972 -0.0103217615 0.09192528 0.081543036
000120 d4 3e 99 bd 9b 0c bb 3d 40 b1 39 3c b8 a0 c7 bc
       -0.07482687 0.09133264 0.011333764 -0.024368629
000130 85 67 9e bd ed 4b 82 3b 49 95 86 bd cc f3 24 bd
       -0.077345885 0.003976336 -0.06571443 -0.040271565
000140 62 57 f6 3c 62 a8 e6 3c 9e d9 20 bd 0b 79 6d bc
       0.030070964 0.028156463 -0.039270036 -0.014494191
000150 8d ba 6e bd 00 0f 49 3d f7 4c 99 3d 84 ea a0 bc
       -0.058283377 0.04908657 0.07485383 -0.019643076
000160 0f 52 30 bd ba 2e 29 3d ac f0 37 bd a2 f4 81 bd
       -0.043047007 0.041304328 -0.044907257 -0.06345488
000170 99 44 84 bb 39 84 84 3d 08 d1 85 bd 70 c8 3b 3a
       -0.004036498 0.06470532 -0.0653401 0.00071633514
000180 e0 93 d2 bc e2 3c 7f 3d 63 65 98 3d 9e ff 89 bd
       -0.025705278 0.06231392 0.07441213 -0.06738208
000190 b5 23 a6 bd 43 8c 51 bd 81 5e 86 bd f4 bf f5 3c
       -0.08112279 -0.051159155 -0.06560994 0.029998757
0001a0 32 f8 c5 3b 15 bc 7e bd 60 78 9c 3d 90 96 8f 3d
       0.00604155 -0.062191088 0.07640147 0.070111394
0001b0 51 f8 bb 3d 91 38 45 bd f5 0e 9f 3b 6a 56 81 bd
       0.09178222 -0.04814965 0.004854078 -0.0631531
0001c0 70 d9 3b bc cf 06 4d 3c e3 cd 16 bd 98 39 96 bd
       -0.011465415 0.01251383 -0.036817443 -0.07335204
0001d0 b0 26 5c 3d 27 41 9b 3d 03 5f c5 3d 5f 5b a5 bd
       0.053747833 0.07580786 0.09637263 -0.08074068
0001e0 d4 73 bb bd 8f 9e 51 bd 16 75 53 3d a5 6e 31 bd
       -0.09152952 -0.051176604 0.051625334 -0.04331841
0001f0 4b 90 bc bd bb 21 a3 bd 3a d6 ec bb 6b f1 96 3c
       -0.09207209 -0.07965418 -0.0072276862 0.018425664
000200 32 5a 12 3d 63 a6 b7 bd 5e d0 b4 bd 28 3a 63 bd
       0.03573055 -0.089672826 -0.088288054 -0.055475384
000210 03 3e e3 3d 6a f4 7d bc 19 b3 95 3d af 4b e3 bd
       0.11095812 -0.015500167 0.07309551 -0.1109842
000220 b5 f3 04 bd 83 4b 43 3d aa 82 ec bd 50 90 b2 bd
       -0.03245898 0.047679435 -0.1154836 -0.08718932
000230 86 df c5 3b a5 c0 f7 bc 67 95 2f 3d 31 eb 33 3c
       0.006038609 -0.030243227 0.04286709 0.010981367
000240 94 1a 48 3c e2 34 10 3d 69 99 4a bc c8 7d 24 bd
       0.012213368 0.035206683 -0.012365677 -0.040159017
000250 e4 ba 4c bd dd ad fe 3c bb 26 a8 bc 54 d2 c8 bd
       -0.04998292 0.031088764 -0.02052628 -0.09805742
000260 59 f8 d2 3b fc d2 05 bd 5d e9 b0 3d 2f 29 9a 39
       0.0064382968 -0.032671914 0.086382605 0.00029403853
000270 3f 74 5f bd c5 42 1f bd c4 9a 0c bd 9c a0 4e bd
       -0.05455422 -0.038882036 -0.034327284 -0.050446138
000280 ad 43 f7 3c 51 8b 0c bd d0 b2 c4 3d 0e 97 52 3d
       0.030183638 -0.03431255 0.09604418 0.05141359
000290 42 94 0a 3d 44 f7 65 bd 82 78 e0 bd 77 76 c8 b9
       0.033832796 -0.056144014 -0.10960485 -0.00038235236
0002a0 32 c6 87 3d a4 1d 00 3d 73 76 4d bd d0 6d ab 3c
       0.066296 0.031278268 -0.05016179 0.020926386
0002b0 cf 77 55 bd b1 e8 74 3d 86 b2 0f 3d d4 ae 21 bc
       -0.05211621 0.059792224 0.035082363 -0.009868342
0002c0 45 5b ca bd 14 14 c5 ba e3 d6 ca 3d df 17 d8 bc
       -0.098806895 -0.0015035891 0.09904268 -0.02637857
0002d0 71 96 38 3d 4a a5 82 3b 09 de a1 3d 25 a9 5b bd
       0.045065347 0.003986989 0.07903678 -0.053628106
0002e0 d9 e4 48 3d 4d 31 f7 3c d0 e5 a0 3d 8b bc af bb
       0.04904637 0.030174876 0.07856333 -0.0053630522
0002f0 b3 91 a7 bc c5 e8 b6 bc 4b 0a bf 3d 97 50 c3 3d
       -0.020455217 -0.02232779 0.09328135 0.09536856
000300 02 19 95 3d 57 26 73 bc 44 d5 b8 bd a1 c7 0d be
       0.072801605 -0.014840684 -0.09025052 -0.13845684
000310 03 3c 0b be 2a b9 bd 3d d3 1d d0 3d 75 34 a1 bb
       -0.13597111 0.09263833 0.101619385 -0.0049195834
000320 58 02 bb bc 25 97 08 3c f3 b8 86 3d 31 77 14 3c
       -0.022828266 0.008336817 0.06578245 0.009061621
000330 0c 56 c3 bd 97 fb 59 bd f2 fc c2 3d 3b 6b 55 3d
       -0.095378965 -0.05321845 0.09520902 0.052104216
000340 d8 11 b3 3d a2 15 ea bc bc 91 94 bd b1 08 19 bd
       0.08743638 -0.028574768 -0.07254359 -0.037361804
000350 ca 90 43 bc f4 fa 98 3d 65 f6 17 bd e5 0c ce bc
       -0.011936376 0.074697405 -0.037100215 -0.025152633
000360 24 89 a8 3d 03 d0 a5 3d 70 db b7 3d 49 8c b5 bd
       0.082292825 0.08096316 0.08977401 -0.08864648
000370 20 b3 ad bc 95 e6 fc bc 42 66 98 3b 55 e4 4c bd
       -0.021203578 -0.030871669 0.004650862 -0.050022442
000380 a4 55 f8 3c f1 5b 77 3d 62 5b 1c bd 83 e5 cf bc
       0.030314274 0.060390417 -0.038173087 -0.025377994
000390 2b 83 ac bc 8f ca 09 bd be 59 b3 3d 33 7f cd bd
       -0.02105864 -0.03364044 0.08757351 -0.10034027
0003a0 7e ed 7c 3d fa f9 29 3b 71 ca a1 bb be c5 a6 3d
       0.061749928 0.002593635 -0.004937463 0.08143185
0003b0 03 31 5d bd 66 d4 99 bc b5 e7 dc bc 90 28 d1 3c
       -0.05400182 -0.018778037 -0.026965955 0.025532037
0003c0 eb 72 c9 bd 67 4a 59 3d 32 63 0f be f0 1c a7 3d
       -0.09836372 0.05304947 -0.14002684 0.08159816
0003d0 c2 02 8f bd 8a 1b 89 3c 03 4c 83 bd 70 1b 8e 3d
       -0.06982948 0.016736764 -0.064109825 0.06938827
0003e0 9b a0 c5 bd 93 a7 79 bd 3c 49 cd bd 5b ff 7d 3d
       -0.09649774 -0.060950827 -0.10023734 0.062011104
0003f0 f4 2e 86 bd 02 ca 99 bd a9 65 f8 bc 01 60 a3 3d
       -0.06551924 -0.07509233 -0.030321913 0.07977296

fc2.bias f4 [64]
000000 81 c7 fd 3c c4 95 d0 3d a7 d7 39 bd 02 10 91 bd
       0.03097892 0.101848155 -0.045371678 -0.070831314
000010 83 21 39 3c de bb d9 3d 44 87 be bd b4 d4 4a 3c
       0.011299494 0.10631536 -0.093031436 0.012379814
000020 94 a4 3c 3c c6 9c 5c bd e6 31 84 3b 32 57 2d 3c
       0.011513848 -0.05386045 0.0040342687 0.010579871
000030 99 a9 05 3d 03 2e c2 3a 46 69 c2 bd 64 32 62 3d
       0.032632444 0.0014814738 -0.094927356 0.055223837
000040 52 b4 3f bd 4a c2 cf 3b a5 dc 4c 3d 83 01 85 3d
       -0.046802826 0.0063402997 0.05001511 0.06494429
000050 4c 69 2b bd e6 17 e3 bd 60 5e 2e bd b9 82 bf 3c
       -0.041848466 -0.11088543 -0.04257047 0.023377763
000060 e4 17 a3 bd 1d ab f1 bc 04 16 74 3d f9 fb dc bd
       -0.07963541 -0.029500538 0.05959131 -0.107902475
000070 a8 04 83 3d b1 71 69 3d 1c f7 23 bd 60 2d bf 3d
       0.063973725 0.05699319 -0.040030584 0.093348265
000080 09 c8 dc ba 0a 8e 61 3d d7 fc 17 3d 2e 28 53 3a
       -0.0016844283 0.0550671 0.03710636 0.00080549985
000090 ad 4f 7c bd 20 c1 89 bc d2 f9 a2 bd 2a 0d e8 bc
       -0.061599422 -0.016815722 -0.07957806 -0.02832659
0000a0 d3 12 ab 3d 55 5c cd bd 85 50 af 3c 06 ac 7f bb
       0.083532 -0.100273766 0.0214007 -0.0039012446
0000b0 80 3f 68 bd 53 92 04 3d 39 6d a4 3c db b3 63 3d
       -0.056701183 0.03236611 0.020071613 0.055591445
0000c0 3d 78 73 bd 8f b2 f4 3d 67 0a 33 bd 02 65 0f bd
       -0.05944084 0.1194812 -0.043711092 -0.035008438
0000d0 2b db 83 bc 80 46 a5 3d f0 1c c3 bd 4b b8 c9 3d
       -0.016095718 0.080700874 -0.09527004 0.09849604
0000e0 f9 2c 48 3d 8f 35 7f 3d 2f 33 68 bd cc 5e 92 3c
       0.048871014 0.062306937 -0.056689437 0.017867468
0000f0 3b f1 a5 3d 34 d0 b2 3d 94 46 25 3d 15 93 a9 3c
       0.08102652 0.08731118 0.04035051 0.020700017

head1.weight f4 [1, 64]
000000 72 f4 03 3d 9b ef 02 bc 14 2c 4d bc 44 cd bb 3d
       0.032215543 -0.007991697 -0.012522716 0.09170011
000010 98 5a 55 3d eb c0 bf 3d 35 fd ea 3d 81 b6 86 3d
       0.05208835 0.09362968 0.11474077 0.065777786
000020 e7 bb 95 3d 89 2b 6c 3c 43 1d 86 bd c1 7c 5f bd
       0.0731123 0.014414676 -0.0654855 -0.054562334
000030 19 6d 88 3d 42 8a c5 bd 3f 24 a8 3d ba ed 0a bd
       0.06661434 -0.09645511 0.082100384 -0.03391812
000040 ac 30 ef 3d 07 d5 5e 3d 8a 15 e7 3d 36 89 e1 bd
       0.11679205 0.054402377 0.11283405 -0.11012499
000050 66 af e0 3d 3f 7e b0 3d 89 85 00 3e 8a 00 67 bd
       0.109709546 0.086178295 0.1255094 -0.056397
000060 fa d4 a6 bd 62 6e a1 bd 76 8a 19 3d cc 34 aa 3c
       -0.08146091 -0.07882382 0.037485562 0.020777129
000070 0f 31 13 bd 4b 3a a5 3c 6d 0e 78 3d 8a 61 bf bd
       -0.035935458 0.020169398 0.060560632 -0.09344776
000080 22 0d a0 bd 4a 57 c6 3c be 00 67 3d 15 1f 12 bd
       -0.07815005 0.024211545 0.056397192 -0.035674173
000090 c7 9e d1 3d 97 ef ca bd 1b 63 d0 3d 8e db 47 bd
       0.102353625 -0.099089794 0.10175153 -0.048793368
0000a0 2a da ad bc c5 14 d6 3d bd 2e 08 3d e3 fd 28 3a
       -0.021222193 0.1045318 0.033247698 0.00064465235
0000b0 b4 2a ab 3d a8 6a 74 bd 4b 38 9d 3d 03 d4 bd 3b
       0.08357754 -0.059672028 0.07676753 0.005793096
0000c0 7f 9a 06 bd ca 02 9f bd 9b 66 b5 3d 58 b5 87 3c
       -0.032862183 -0.07764204 0.08857461 0.016565964
0000d0 e0 d0 b3 3d 8c 35 81 bc a9 81 a2 3d 77 4b 76 bd
       0.08780074 -0.015772603 0.07934887 -0.060130563
0000e0 95 98 c7 3d 5e 90 eb 3d 76 13 26 bb b3 91 b0 bd
       0.097458996 0.11502145 -0.002534119 -0.0862154
0000f0 1c c0 cf bd 40 2f 7a bd b6 c7 ce 3d d6 89 87 3c
       -0.10144064 -0.061080217 0.100966856 0.016545217

head2.weight f4 [1, 64]
000000 29 a2 0e 3d f6 f8 b1 3d e4 e7 a2 bd 41 21 80 3b
       0.034822617 0.08690064 -0.07954386 0.003910214
000010 b4 07 de bd 7f ad ba bc 40 75 85 3c 96 4a c1 3d
       -0.10841313 -0.022787808 0.01629126 0.09438054
000020 e1 e0 5a 3c c4 52 62 3b 7e 85 e9 bd 14 2b d0 3d
       0.013359279 0.0034534195 -0.11402415 0.101644665
000030 01 8b 03 3e 0e 64 b9 3d 41 0b 11 bd a2 33 9b bd
       0.12845995 0.09052287 -0.035411123 -0.075782076
000040 47 1c 35 bc d6 9b cf 3d 95 02 d9 3d 39 fa d1 3c
       -0.011054105 0.10137145 0.105961956 0.02563201
000050 68 d0 9c bd 0f fb 05 be 2f 8f 33 bd 42 1c 71 3d
       -0.07656938 -0.13084053 -0.043837722 0.05886484
000060 95 c4 a1 3d 9f 42 ee bd 40 53 22 bd 52 c9 fd bd
       0.07898823 -0.11633801 -0.039630175 -0.123919144
000070 d0 1e b2 bd 84 a1 01 3e 3f d0 dc bd 7a c7 07 3e
       -0.08697283 0.1265927 -0.10781907 0.13259688
000080 26 a5 c3 bd 1e ea 5c 3c 48 64 88 bc 10 a4 0d be
       -0.09552984 0.013483552 -0.01664938 -0.13832116
000090 6a 75 10 3d f1 de af bd fc c4 01 bd ea 29 1f 3c
       0.035268225 -0.085874446 -0.031682 0.009714583
0000a0 9f 4d 62 3d 85 6c 21 3c 98 ad 31 3d f0 1e 6e 3d
       0.055249806 0.009852533 0.043378443 0.058134973
0000b0 09 c5 c9 3d ae 9b 11 bd 4e 94 92 3d 36 9e d0 3d
       0.098520346 -0.03554886 0.07157193 0.10186426
0000c0 57 e4 37 bd 00 2a 90 3c 5f 63 37 bd 29 91 d0 bd
       -0.044895496 0.017598152 -0.044772502 -0.10183937
0000d0 62 c1 e4 3d 81 a8 b3 bd 0d ca 6e 3a 87 01 9e 3d
       0.11169697 -0.08772374 0.00091090874 0.07715135
0000e0 8b 03 d2 3c ef 1a ba 3d 0a 4b 62 bc 16 e0 7b bd
       0.025636455 0.090871684 -0.013811836 -0.061493002
0000f0 c5 d8 da bc 17 cb c9 3d 59 6e 9a bd b0 90 48 bd
       -0.026714692 0.098531894 -0.075405784 -0.04896611
