FNO2d.pth (torch, 923833 bytes, 22 tensors)

fc0.weight f4 [100, 6]
00000000: 8287 1f3e a844 b93e 4c3d 7dbe 1c76 c13d
00000010: 09c8 c23e ba85 d83e 6069 a1be 95d5 263e
00000020: 68ce bd3d 03b9 8cbe 7110 cf3e 070d e73d
00000030: a57d 37bd 7c36 1d3e 363f da3d 8ba8 af3e
00000040: 182d 653e 3ac3 42be 6586 6d3d 625d b23e
00000050: 50f2 523d edc6 b13d 9e4c 5b3e 82cb 893e
00000060: 5cad d33e 45f2 81bd 42d3 3dbe c37a cabd
00000070: ce82 a5be be2c 643e e25a 9e3c 855d 11bd
00000080: 2de6 84bd 2835 9cbe 9e90 95bc 94b9 2e3e
00000090: 2d68 0f3e bc4e 543e 89e2 d8be beca 1a3e
000000a0: 127d ff3d e897 78be d001 a6be 26f7 9b3e
000000b0: 99d3 e13d cc6a 3cbe 39a6 62be 0bd8 f83d
000000c0: 0e34 b13e 518d b33e 07f7 b1be eece d53e
000000d0: 0009 55be d6f0 a8be 6107 cb3c 62b8 723e
000000e0: f470 12be f75a b93e cbf8 ce3e d979 18be
000000f0: 0498 d5be d997 fe3d 1f8c 8fbe bc3d 86be
00000100: 8fc1 43bd dd5e 86be 77b0 a63e 40c1 963e
00000110: 6aa7 a6be 53f7 603e 0328 703e f549 1f3e
00000120: f6ad cebd 0b52 443b 8cd5 153e 2893 863e
00000130: 2dae 90bc 816c 5e3e cc39 953e 10b0 6d3e
00000140: 53e1 c4be 41ca 7bbe 9d36 c7be 11b0 573e
00000150: b84d 1cbd 89de abbc 4eba f73b 7b58 8abd
00000160: 8ec6 c5be bf47 6bbe b4c5 52be 7253 90be
00000170: 9057 ba3e e4b5 c4bd 2ef9 b5be 354d 6bbe
00000180: 1424 22be c385 82bd ed01 3b3e c715 9abe
00000190: 3b9c 9cbe f479 f83d f5b5 90be b748 47be
000001a0: 6f77 183e 6f5b 853e 4983 c33e b5de 83bd
000001b0: b8c4 043e 787f 7fbe 834a cbbe 2ccd a3be
000001c0: 19ca c43e 7cb3 e0be 8504 423e e422 9a3d
000001d0: e3af bc3e 1a30 f73b a0c7 90be baf2 b63e
000001e0: 2a47 3b3d e6c0 2cbe da99 af3e 9d01 033d
000001f0: b057 963e 56b3 bdbe 9c9d 163c 3df0 953e
00000200: c9cd f9bd 99bf 60bd ffb8 ccbe 3a6b cabe
00000210: 85d5 933d 9c88 8fbe 1806 6bbe f34f c33e
00000220: 4d4c 97be a5c4 b93e 8142 cabd 8f8b b9be
00000230: a824 cbbe d4ac 24be ba10 babd 4210 7e3e
00000240: badc f2bd d291 3d3e c197 05be c59a 99be
00000250: ba00 76be c76b a13e acf8 c63e 5192 8abe
00000260: 3332 79be 76c5 b4be 7429 9bbe 93f8 9e3e
00000270: 9f86 433e 04f0 64be d699 a5bd 835e 5bbe
00000280: f97e 64be 71ad 7a3e e207 65be b2ec 833d
00000290: 790a 86be 4f61 943e da5f 1b3c e600 ba3d
000002a0: 4055 963e 5e81 aa3e 4f88 b73e 7c8e 1b3e
000002b0: 0681 95be 253a 183e cd43 8f3e 5b3a c23e
000002c0: 046b aa3e 162d 84be 3412 9dbe 7d30 8ebe
000002d0: 1933 653e a9b7 bb3d 9bd4 173c be61 bcbe
000002e0: 1fda fcbd a7af 34bd 28f0 e93d dae4 49be
000002f0: 949f 86be 1d01 7bbc 43c1 463e 8920 adbd
00000300: 570a 91be 58fe f9bd 79a9 9cbe 5450 e33e
00000310: e2c9 5bbe e15a 763e 79ad af3e a544 723e
00000320: 4e1b a4be e08a 2a3e 475f 6a3e e2a5 9dbe
00000330: b5f8 d0be ec54 97bd e276 143d 27f6 553e
00000340: cb88 69be ae42 1fbe c6d7 ee3d adc7 1e3d
00000350: c55e debd 5703 a53e b49f a7be 5428 e6be
00000360: bac0 073e 68d7 b33e 3787 e43d a1f1 873e
00000370: 6b6b 1fbe 20e5 abbe a012 b4bc 420d 8d3d
00000380: 938e 91be 31a3 21be 1e9b 643d 8056 c73e
00000390: 827a 0e3e 5047 c6be 6d6b be3d ec4a 5d3d
000003a0: 0286 93be df71 253e 6f43 02be b32c 5dbd
000003b0: fc53 ca3d 6049 41bd c180 8e3e 81b7 3cbd
000003c0: 19aa f73d 33f5 af3e 75aa 8b3d baeb 30be
000003d0: 7b4e 68be 43f8 0cbd 8c05 473e 3ac7 babe
000003e0: b605 753b e15c 00bd 2f6d 803c e023 853d
000003f0: ff73 943e d6fb 903e 797a 8f3e 5b78 e43d
0.15579036 0.36185193 -0.24730414 0.09446356 0.3804324 0.42289525 -0.31525707 0.16292413
0.092678845 -0.27484903 0.4044223 0.11281782 -0.04479756 0.15352815 0.10656588 0.34308276
0.22380483 -0.19019786 0.057989497 0.3483687 0.05150062 0.0868052 0.21415946 0.26913077
0.413432 -0.06345037 -0.1853762 -0.09886696 -0.3232636 0.22282693 0.019330446 -0.035489578
-0.06489215 -0.30509305 -0.018257435 0.1706298 0.14004584 0.2073316 -0.42360333 0.15116403
0.12475027 -0.24276698 -0.32423258 0.30461997 0.11026687 -0.18400115 -0.22133721 0.12150582
0.34610027 0.35068753 -0.3475878 0.41759437 -0.20804214 -0.32996243 0.024783792 0.23703149
-0.143009 0.36202213 0.4042419 -0.14890231 -0.4171754 0.124313064 -0.2803659 -0.26218975
-0.047792014 -0.2624425 0.32556507 0.29444313 -0.32549602 0.21969347 0.23452763 0.15555556
-0.10091774 0.0029956128 0.14632243 0.26284146 -0.017661178 0.21721078 0.29145658 0.23211694
-0.3845316 -0.24588872 -0.38908854 0.21063258 -0.038160056 -0.020980136 0.007560051 -0.067551576
-0.38628048 -0.22976588 -0.2058323 -0.28188664 0.3639493 -0.096050054 -0.35541672 -0.22978671
-0.15834075 -0.06373169 0.18262453 -0.3009474 -0.30587944 0.12132636 -0.28263822 -0.19461332
0.1488931 0.2604632 0.381861 -0.06438962 0.12965667 -0.24950969 -0.39705285 -0.3199247
0.38435438 -0.43886936 0.18947037 0.07526186 0.3685294 0.007543576 -0.28277302 0.3573206
0.045722164 -0.1687046 0.34297067 0.03198396 0.29363775 -0.37050885 0.00919285 0.2928485
-0.121974535 -0.05487022 -0.3998489 -0.39534932 0.0721846 -0.28033912 -0.22951543 0.38146934
-0.295504 0.3628284 -0.09875966 -0.36239287 -0.39676404 -0.16081554 -0.090852216 0.2481089
-0.118585065 0.18512657 -0.13046171 -0.30000892 -0.24023715 0.3152754 0.38861597 -0.27064756
-0.24335556 -0.353069 -0.30305064 0.31049022 0.19094323 -0.22357184 -0.080859825 -0.21422772
-0.22314061 0.24480225 -0.22366288 0.064416304 -0.26179865 0.2898049 0.009483302 0.090822026
0.29361916 0.33301824 0.35846183 0.15191072 -0.292 0.1486593 0.27981415 0.37935147
0.3328477 -0.25815648 -0.3067795 -0.2777137 0.22382773 0.0916589 0.009266998 -0.3679332
-0.12346291 -0.044112828 0.11422759 -0.19716206 -0.26293623 -0.01532009 0.19409661 -0.08453471
-0.283282 -0.12206715 -0.30598047 0.44397223 -0.21463731 0.24058105 0.34312037 0.23658998
-0.32052082 0.16654539 0.22887908 -0.3079062 -0.40814748 -0.073892444 0.036246188 0.20894681
-0.22806089 -0.1555278 0.11662249 0.038764644 -0.108579196 0.3222911 -0.3273903 -0.44952643
0.13257113 0.3512528 0.11158603 0.26551536 -0.1556832 -0.33573246 -0.021981537 0.06887294
-0.28429088 -0.15784909 0.055811994 0.38933182 0.1391392 -0.38726282 0.092978336 0.05402653
-0.28813177 0.1615672 -0.12721036 -0.053997707 0.098793 -0.047189116 0.27832606 -0.04607344
0.120929904 0.3436676 0.068196215 -0.17277423 -0.22686188 -0.03441645 0.1943571 -0.36480123
0.0037387437 -0.031338576 0.015677063 0.06500983 0.28994748 0.28317136 0.28023127 0.111557685

fc0.bias f4 [100]
00000000: f360 28be 6482 42be 9cee 8d3e 1a06 e93e
00000010: b92f c23e e35b 81be 6136 4ebe d0c6 f1bc
00000020: 81fc 7e3e 6200 83be c677 783e edee 0cbe
00000030: 819a 27bd 11ad 54be 3f4f ab3d bbef 8c3e
00000040: 66da aabd e97b 973e 7b33 9cbe 0859 ad3e
00000050: 598a 5d3e e518 2c3e a480 e1be 3b8c 8d3e
00000060: c76e c3be 273c 08be b207 22be 9577 30be
00000070: 17d1 a0be 3c3d 8e3e 31c8 4d3d fb66 483e
00000080: 2fc8 fa3d 0de7 f83d bb8f af3d 6837 713e
00000090: 24f2 20be 9a0d 9b3e d44b b63d 7d3b 363d
000000a0: aaa5 52ba 462f ec3d c4ed 7e3d 7bc1 823e
000000b0: dd67 edbe b0de 04be 167a 543e 25c6 6dbe
000000c0: 3182 d3be f8c1 e03e 830f 6dbe bfa8 ffbe
000000d0: e928 803e e37b 84be fe57 24be 298f 64bc
000000e0: 9e3a 25be 6ac7 07be 0acf 98bd 0ffc a0be
000000f0: 36e7 fbbe f9ba 8c3e ddde 89be d56b fe3d
00000100: 572c c13e 5807 a3be 7194 c43e 3b48 013d
00000110: 2709 22be e202 c8be ff13 633e c5c7 563e
00000120: 1cab 513d dbd1 313e 1264 5bbc 4865 eabd
00000130: baac 3abe 2afe f23e 405f 9abd 9ca9 38be
00000140: 2583 11be c913 8dbd 01ad dd3e 92e4 4f3e
00000150: da40 903e 9326 18be 12ab acbe b89e 28be
00000160: 8b34 043e 1172 473e 337c 713e a511 653e
00000170: 0afa a93e cda6 1d3e 3ad9 653e 0f1a e6be
00000180: f870 2c3d 5b44 e23e 97bc 4b3d 1607 84bd
-0.16443233 -0.18995053 0.27721107 0.45512468 0.37927034 -0.25265417 -0.20137931 -0.029513747
0.2490101 -0.2558623 0.2426444 -0.13763018 -0.04091883 -0.20769145 0.08364724 0.2752665
-0.083424374 0.29586723 -0.30508026 0.33856988 0.21634807 0.16806372 -0.44043458 0.2764605
-0.38170454 -0.13304196 -0.15823248 -0.17233117 -0.31409523 0.27781093 0.050239746 0.19570534
0.12245213 0.121534444 0.08572336 0.23556292 -0.1571737 0.30283815 0.08901182 0.044490326
-0.000803555 0.11532454 0.06223847 0.2553824 -0.46368304 -0.12975574 0.20749697 -0.23220117
-0.41310266 0.43897986 -0.23150449 -0.4993343 0.25031212 -0.25875768 -0.16049191 -0.013950148
-0.16135642 -0.13259664 -0.074613646 -0.31442305 -0.49199837 0.274864 -0.26927844 0.12422911
0.3772914 -0.3184154 0.38394502 0.031563025 -0.15823804 -0.390647 0.22175597 0.20974644
0.051188573 0.1736521 -0.013390558 -0.11445099 -0.18229952 0.47459537 -0.07537699 -0.18033451
-0.14210184 -0.06888539 0.43296054 0.20302036 0.28174478 -0.14858465 -0.33724266 -0.16466796
0.12910669 0.19477107 0.23582534 0.22370012 0.33198577 0.1539566 0.22446147 -0.44941756
0.042099923 0.44192776 0.0497404 -0.06446664

conv0.weight f4 [100, 2, 1, 1]
00000000: b299 31bf 43af 27bf 8138 fbbe 79a9 3abf
00000010: 8e86 00bf 2599 28bf e437 bb3e fd65 1f3f
00000020: 5600 9dbe 8e35 1dbf b621 8fbe 2da2 bfbe
00000030: aa93 253f 5ddd ff3e 5c10 c8be 1856 2cbf
00000040: 2889 6c3e 2728 f13b 1832 20bf 9b50 ce3e
00000050: f26e f2be 5e2c 1a3f 7c23 32be c420 293f
00000060: def8 a1be 98f2 d63e dc54 80be 0cdb b7be
00000070: 02dc bf3e 6553 00be 6747 723c b467 d5be
00000080: 55af 2f3f aade a43e 6652 093f 464d 18bf
00000090: bc42 2d3f 9c92 2a3f f6b4 32bf 8054 cbbe
000000a0: 78fb 07be 2e6e 103e 3217 1abf f0ff 153f
000000b0: b605 35bf 22e5 cebd 7dea 9dbe 1cec cabe
000000c0: 1002 363e 2690 1fbe 9111 58be 67e0 093f
000000d0: b687 3d3e 3d0f 01bf 1af4 323f fbd7 263f
000000e0: d5b6 e2be dd4a f0be 2563 2c3e 2003 f13e
000000f0: 1b2f 6a3e 2258 b53e b3da 79be eac0 30bf
00000100: 6048 5c3d cff2 1ebf 28e5 c6be 11d0 e03e
00000110: a0a1 f7be 810e 23bf 6e48 78be fdf7 00bf
00000120: b310 173f 3ec2 41be 3f17 023b 65b0 2abf
00000130: 249b e9be 8e46 2e3f 6b47 d13e 1878 813e
00000140: f181 fb3e ffa9 36bd f821 e4bd 0dec d63e
00000150: 7fc9 023f 6fca ed3e 6764 8e3e 3991 01bf
00000160: 9d65 e43d 0ec1 f3bd dfd3 33be 60cd 613e
00000170: 05b5 1b3f 60a7 bd3e db54 083f b1f2 c8be
00000180: dec9 8fbd 6832 1a3f 619f f6bd 4439 0c3f
00000190: 3b9b 81bc 97ff babc 28b4 06bf 2339 07bf
000001a0: 312e 6bbe 7985 8b3e 2462 0e3f d890 24be
000001b0: 10c5 ccbe 8e69 10bf 8e05 17bf b751 afbe
000001c0: 40d6 c9bd 7374 c43d fb7a d9bd e573 ba3d
000001d0: 1157 03bf 9bf1 d9be edd1 12bf 804a 263d
000001e0: 3d6b 0dbf afbc 8b3e c48d 243f d3bc 233e
000001f0: ce50 e6be eb64 0c3f a038 73be 8354 f0bc
00000200: 850d 20bf 3eea 1f3f a2d4 3b3e 8b8c 29bf
00000210: 78ef 11be 2270 16bf 878a 323f 4c38 5cbd
00000220: 1d0c b63e 64a7 bbbe 19a8 e5be eea6 78be
00000230: e61c 803e 3069 313f eb92 8fbe 15ae 0ebf
00000240: 0917 81be a613 0ebf 03cd 0b3f 4408 8f3e
00000250: 691b a8be 6898 11bf 17f2 353d 59b1 ac3e
00000260: cc21 ef3d b4f1 22be 0802 393e 8c45 56be
00000270: 834e 163f 2416 25bc 861b 253f e260 ce3e
00000280: a266 0bbf c1e3 f0be 9190 073f d4a2 30bf
00000290: 54db 0abd bf7a c63e 8719 e23e 59dc 06bf
000002a0: 572b fcbd 97e3 46be 6192 053f 0ecd a0be
000002b0: b2aa 32be 626d 8ebe e9af e3be 2012 893e
000002c0: 8fee 313c 1bf4 103d cec3 83be 621f 123f
000002d0: 2c3c 00bf e839 a1be e343 eabd cc9c 0dbf
000002e0: 7b71 9ebd 40fc 353e 4619 86be 3410 6e3e
000002f0: 9e19 8d3d 3e30 bdbd 73af cb3e 4357 59be
00000300: a005 21be e8ec d53e 7200 ba3d 9ee2 833e
00000310: c6ac 27bf ec3c f33e 10d3 81be 6308 90be
-0.69375145 -0.65501803 -0.49066547 -0.72914845 -0.50205314 -0.6585868 0.3656608 0.62264997
-0.3066432 -0.6140984 -0.27955407 -0.37428418 0.6467844 0.49973574 -0.3907498 -0.6731887
0.23099196 0.007359523 -0.62576437 0.40295872 -0.4735027 0.6022395 -0.17396349 0.6606562
-0.31635183 0.4198196 -0.25064743 -0.35909307 0.3747254 -0.12531812 0.014787531 -0.41680682
0.6862691 0.3220113 0.53641355 -0.5949291 0.67679954 0.6662996 -0.69807374 -0.39712906
-0.13279521 0.1410453 -0.60191643 0.58593655 -0.7071184 -0.10102297 -0.30842963 -0.39633262
0.17774224 -0.15582332 -0.21100451 0.53858036 0.18508801 -0.50413877 0.6990372 0.6517331
-0.44280115 -0.46932116 0.16834696 0.47072697 0.22869532 0.35418802 -0.24399833 -0.69044363
0.05377996 -0.62089247 -0.38846707 0.43908742 -0.48365498 -0.63694006 -0.2424638 -0.503784
0.59009856 -0.18921754 0.0019850282 -0.66675407 -0.45626175 0.6807641 0.408748 0.25286937
0.49122575 -0.044595715 -0.111392915 0.41976967 0.5108871 0.46443507 0.27810976 -0.5061222
0.11152194 -0.11902057 -0.17561291 0.22051 0.6082309 0.3704176 0.5325448 -0.3924766
-0.07020925 0.60233164 -0.12042118 0.5477488 -0.01582109 -0.022826953 -0.52618647 -0.5282156
-0.2296684 0.2725027 0.556185 -0.16070879 -0.39994097 -0.56411064 -0.5899285 -0.3424203
-0.09855318 0.095925234 -0.1061916 0.091041364 -0.5130473 -0.42567143 -0.5735157 0.040598392
-0.5524176 0.27292392 0.6427882 0.1599 -0.44983524 0.5484149 -0.2375207 -0.029337173
-0.6252063 0.624668 0.18342832 -0.66230077 -0.14251506 -0.5876485 0.69742626 -0.053764626
0.35556117 -0.36651146 -0.4485481 -0.24282429 0.25022048 0.6930113 -0.28041777 -0.5573438
-0.25212887 -0.5549873 0.546097 0.27935994 -0.32833412 -0.5687318 0.044420328 0.33729056
0.11676368 -0.15912515 0.18067181 -0.20924968 0.5871355 -0.0100760795 0.6449512 0.4030829
-0.5445348 -0.47048762 0.52954966 -0.68998456 -0.033900574 0.38765523 0.441601 -0.52679974
-0.12312954 -0.19422756 0.5217648 -0.31406444 -0.17447928 -0.27817827 -0.44470146 0.2677164
0.010860099 0.035389047 -0.25735325 0.57079136 -0.50091815 -0.3148949 -0.114387296 -0.5531738
-0.077364884 0.17772007 -0.26191157 0.23248369 0.06889652 -0.09237717 0.39782295 -0.21224694
-0.15724802 0.41782308 0.09082116 0.25758833 -0.65498006 0.47507417 -0.2535634 -0.281314

conv0.bias f4 [100]
00000000: c722 8fbe e1ba 3fbf b0ea 0ebf a6a6 af3e
00000010: d7ab 88be 65c8 303d dafe 18bf 5c1f fe3d
00000020: 67c0 283f 73c4 27bf 9aa3 2b3f c8a6 133e
00000030: 96ff b23e 5cfa 0ebf 3f49 ad3e 507a 8dbd
00000040: 44ed 4a3f a17c 9a3d e5e5 19be d045 fcbe
00000050: 40e8 503e 9772 35bf 5ed1 88bc d9cc e5be
00000060: 7837 9b3e 36e1 ca3e a085 bd3e b0f1 30bf
00000070: befa 193f e3ee e0be a4a6 3bbe f5d7 b5bd
00000080: 2a71 873e 80d8 083e abf2 59be 3deb 9dbd
00000090: e6c4 463f c2c7 0b3f 18ba 3b3e f816 133f
000000a0: 3b7e 25be cc1d 043f 5042 55be 6365 19bf
000000b0: 6929 fe3e 35d6 6abe 7e7b 243c 287b 003f
000000c0: 8981 3ebf f7c3 8abe e8c4 8cbe ae84 2f3e
000000d0: 546c ec3e 6757 5d3f dc1d 1b3f fc2e 913e
000000e0: 4ef7 413e bd2b 303f a5fb 57be 9db0 9d3d
000000f0: 99e6 1b3f c364 813c 6951 123f 9da5 933e
00000100: 3742 f4be a73c 503f 2b7f 54be d8fc 083f
00000110: 0e42 01be c467 c13e 8644 9c3e 1b85 5d3d
00000120: e909 adbe f0c3 bcbe 9588 0f3f c29e bdbd
00000130: 7e34 f0be 5918 ddbe ed71 2d3d 83f5 013f
00000140: 192f 12bf f4c0 853c 286f 113f 7084 09bf
00000150: afd0 a9bd 6b26 b0be 4354 103f cce0 e5be
00000160: 11e9 babe 5657 4a3f b1bf 99bd 8532 38be
00000170: 184e ba3e 58c3 0d3f 6ae2 00bf d8cb 203e
00000180: a9e4 f2bd 664d 5cbe 5f4a 1abf 6e5b d03e
-0.2795622 -0.7489453 -0.55826855 0.3430683 -0.26693603 0.04315986 -0.5976387 0.12408325
0.6591858 -0.6553413 0.6704651 0.14419091 0.34960622 -0.5585077 0.33844945 -0.06908095
0.7926829 0.07543302 -0.15029104 -0.49272013 0.20401096 -0.70877975 -0.016701397 -0.4488285
0.30315757 0.39624947 0.3701601 -0.69118786 0.6014823 -0.43932256 -0.18325287 -0.08879081
0.26453525 0.13363838 -0.21283977 -0.07710884 0.77644193 0.5460168 0.18332708 0.5745692
-0.16161434 0.51607966 -0.20826077 -0.5992033 0.49640968 -0.22933276 0.010039208 0.5018792
-0.74416405 -0.27102634 -0.27493978 0.17140457 0.46176398 0.8646149 0.60592437 0.2835616
0.18941996 0.6881674 -0.21092089 0.07699702 0.6089874 0.015795117 0.5715547 0.2883729
-0.47706768 0.8134255 -0.20751636 0.5351081 -0.12622854 0.3777448 0.3052103 0.054082017
-0.33796623 -0.36868238 0.5606778 -0.09258796 -0.46915048 -0.43182638 0.042344976 0.50765246
-0.57103115 0.016327359 0.56810236 -0.5371771 -0.08291756 -0.3440431 0.56378573 -0.4489807
-0.3650594 0.79039514 -0.07507265 -0.17988022 0.36387706 0.55376196 -0.5034548 0.1570276
-0.1186002 -0.215139 -0.6026973 0.40694755

w0.weight f4 [100, 2, 1, 1]
00000000: 497f debd fe60 ce3e 6e46 0f3e acdc e53d
00000010: 0648 1ebf 963b 0dbf 33d0 703e db63 efbe
00000020: a42b 18bd c660 f1be 9705 8e3c 308b c5be
00000030: de10 273e d993 103f 3cce b4be 1bd1 debe
00000040: 94af 2dbf f199 8fbe 679d 54be 9b87 5e3d
00000050: 7cd7 893c f7f2 10bf b316 b93e 2388 f43e
00000060: f8b3 10be 87c5 fbbe 00b4 593d 374b ce3d
00000070: 9cfb c2be 4bdc 023f c95a 053f aaba b0be
00000080: 8ee5 08bf a32a 063e 076a 0a3f 436d 013f
00000090: 9a6c 333e fe50 15be 24d3 b3bd ec6b 343f
000000a0: adcd e3be 352c 213f 2473 c5be 1f4b 1e3f
000000b0: 77d6 083f f9bd 38be 809b 8b3e a931 1c3f
000000c0: ad6d 0b3e dc54 18bf 6d7e 013f 380d c9bc
000000d0: 5d15 25bf ce45 143f 611f 63be f1ea 313f
000000e0: 58ad 263f 2ece 6cbe d11b dd3e 6263 a33d
000000f0: c98e e6be f5a2 96be 1cc5 263f 45f3 2a3f
00000100: 85c9 91be 6933 2cbe 2b15 503d f650 96be
00000110: a4be b93e 7943 2ebf d1b4 83be b36d cebd
00000120: e06c 663d a316 abbe 6481 953e 5201 f83e
00000130: 675d 7ebe 63d5 b6be 79df 0d3f 71b1 2fbf
00000140: 7b17 f9be ecd9 1b3f 757b d8be d355 68be
00000150: 085a e1be 2512 21bf 69ec 333f daf8 3f3e
00000160: 0ba8 773e f74b 0b3f cb20 943e 45fc 123f
00000170: 9d0d 19bf 6c76 173f d9f4 17bf 90a7 ebbe
00000180: 96a2 e13e b42d 70be a2c1 31bf 38c1 253f
00000190: f47d 293e c76b bd3e 7991 f8be b7ba 763e
000001a0: fb79 ce3e 625a 34bf fbd8 fe3e dafe 00bc
000001b0: 19a2 c2be bfc4 2f3f 0ae8 d5be c482 063f
000001c0: 8225 24bf d8ad 1c3f 0b7e 9f3e f413 113f
000001d0: bf3b 1cbe 3f0f fb3e fb83 283f 1c79 59bd
000001e0: 22ea 9fbd 6f86 313f fe86 003e 55fe 23bf
000001f0: 97a8 e0be 8185 dfbd 7c93 1bbf 8c72 993e
00000200: 4db1 adbe b88f 25bf c32d 2cbe f843 6a3d
00000210: 9a34 2fbf 0677 09bf cea6 e4be adf5 22bf
00000220: 25a1 823e 4619 883e 851e efbe 4299 c4be
00000230: fd09 3bbe 7c02 4f3e 9f2d ffbc 1944 d93e
00000240: b43f 933e 4c04 f13d a565 1fbf 8f6b 2bbf
00000250: 4c1c a33e 9160 f43e 841f 01bf dd62 24bf
00000260: 0d66 a03e c9fd 303f 17e7 333c 0919 a2be
00000270: cf22 9d3d f59d ac3e da6d eabe bb69 7f3e
00000280: f5d9 d63e e0be 043f 8aee 77bd 971f 17bf
00000290: b0f0 85be 6c7b cbbc 00bb 053f e348 bfbe
000002a0: ca07 a83e 83ee 1ebf a31c 78be 6a34 173f
000002b0: 22f1 1fbf 8d6b 05bf ae7b debe 1d17 9bbe
000002c0: 06cc 1bbc fc0c fc3e b54a 7fbd 6eb7 2dbe
000002d0: 564b f33e 5e0b 1bbf d2a4 1ebf 97ab cc3e
000002e0: 2409 2abf 9a43 203f 9af0 47be 13b8 943e
000002f0: ca69 a1be 4752 acbe d585 29bf 341c 053e
00000300: fd64 3a3f c677 13bf cce0 213f 1d97 213f
00000310: 1629 103f 4230 0d3f b4c4 fbbd cc3a cd3e
-0.108641215 0.40308374 0.1399171 0.112237304 -0.6182865 -0.55169046 0.23516922 -0.4675587
-0.037150994 -0.47144145 0.01733665 -0.38582754 0.16315028 0.564756 -0.35313594 -0.4351891
-0.67846036 -0.28047135 -0.20763169 0.054328542 0.016826384 -0.56620735 0.3615013 0.47760114
-0.14131153 -0.4917414 0.053150177 0.1007294 -0.38082588 0.5111739 0.5209165 -0.34517413
-0.5347527 0.13102202 0.54068035 0.50557345 0.17521897 -0.14581677 -0.08780506 0.70477176
-0.44492856 0.6295808 -0.38564408 0.61833376 0.5345225 -0.18041219 0.27267075 0.61013275
0.13616057 -0.59504485 0.50583535 -0.024542436 -0.6448572 0.57919014 -0.22179939 0.6949912
0.6510825 -0.23125526 0.43185285 0.0797794 -0.4503081 -0.294212 0.65144515 0.6677745
-0.2847406 -0.16816486 0.050801437 -0.29358643 0.3627826 -0.68071705 -0.2572389 -0.10079517
0.056256175 -0.33415708 0.2920028 0.48438507 -0.24840318 -0.35709676 0.5541912 -0.6863013
-0.48650727 0.608794 -0.4228169 -0.2268899 -0.44014 -0.6291831 0.7028261 0.18747273
0.24185197 0.5441279 0.2893127 0.5741618 -0.597864 0.5916507 -0.5935798 -0.46026278
0.44069356 -0.23454934 -0.69436085 0.64747953 0.16551954 0.3699629 -0.48548487 0.24094664
0.4032744 -0.70450413 0.49774918 -0.007873261 -0.38014296 0.68659586 -0.41778594 0.5254328
-0.6411973 0.61202765 0.3115085 0.5667107 -0.15257166 0.4903507 0.65826386 -0.053094015
-0.07808329 0.69345754 0.12551495 -0.64059955 -0.43878624 -0.10914136 -0.6077192 0.29970205
-0.33924332 -0.6467242 -0.16814332 0.057193726 -0.6843964 -0.5369724 -0.44658512 -0.6365612
0.2551357 0.26581782 -0.46702972 -0.38398176 -0.18265529 0.20215791 -0.031149684 0.42434767
0.2875954 0.11768398 -0.6226447 -0.66960996 0.31857526 0.47729924 -0.50438714 -0.64213353
0.3132786 0.69137245 0.010980389 -0.31659725 0.07672655 0.33714262 -0.45786935 0.24942677
0.41963163 0.5185375 -0.060530223 -0.5903258 -0.26160192 -0.024839126 0.52238464 -0.37360296
0.32818443 -0.6208269 -0.24229674 0.5906435 -0.62477314 -0.52117234 -0.43453735 -0.30291072
-0.009509092 0.49228656 -0.062327106 -0.16964504 0.47518414 -0.6056422 -0.61970246 0.39974663
-0.664202 0.6260315 -0.19525376 0.29046687 -0.31526023 -0.33656523 -0.66219836 0.1299904
0.72810346 -0.57604635 0.6323364 0.63121206 0.5631269 0.5515176 -0.122933775 0.4008392

w0.bias f4 [100]
00000000: fa6d 503d 3dd0 b0be 57c3 08bf bfa3 053f
00000010: ddfa 1e3f 8c2d f63e ac40 173f 9826 0cbf
00000020: 5b74 8dbe f206 e53d 5a47 cebe 0806 c03e
00000030: b1e2 e0be d134 a2be f995 413f 5428 5e3f
00000040: 37e4 a13e ff87 07bf 3827 133f 9acc 06bf
00000050: ecc8 113e 5f14 9ebe 3774 213f 351c 193f
00000060: aa72 25be 3e75 a6bb f64f 513e 5401 f5bc
00000070: b947 dabe b7fa 8cbe 5f00 903e e1aa 963e
00000080: 9320 d63e 1126 e3bd 1b49 d63e 9fc5 423f
00000090: 04f2 113f b2a2 0b3f a85b 46bd 61b5 f1be
000000a0: f227 a3be bf99 993e 579b db3d 9a68 4f3e
000000b0: 13de 5f3e 2dfa cdbe 045d 393f 2ba1 f63e
000000c0: 968c 46bf 0311 06bf ce2f 0ebe ca94 08bf
000000d0: 4886 0a3f cc81 863e 23c3 323e 2254 9bbe
000000e0: 514c 633e b854 a7be 9651 1dbf b940 c43d
000000f0: c95f ce3e 572d 2b3f e663 ab3d 1a47 48bf
00000100: d2a9 0e3f 76da fcbe 4978 02bf fd4f 913e
00000110: 88ca 253e 0b17 b5be e0e7 3c3f 787a 273e
00000120: f2a7 8dbd a14a d93e 24b5 c53e e1e5 743e
00000130: 53de 2a3f ad8b 2cbf 0dc3 8e3e b9cf 413f
00000140: 296a b2be 94b9 fabc 276f 1a3f c40d 1d3e
00000150: 3032 563f 053c 823e 4dcc d9be 351a dabe
00000160: 7829 f13e 637c 383f 2ba4 0a3f 5ee8 303f
00000170: ce77 6b3e 3c79 26bf 4cb5 ae3d 098d f5be
00000180: 4c2a 963e 1c10 02bd 19d0 213e 3339 0dbf
0.05088613 -0.34533873 -0.53423065 0.5220298 0.62101537 0.48081625 0.59083056 -0.5474639
-0.27627835 0.11182965 -0.40288812 0.375046 -0.43922952 -0.3168092 0.75619465 0.86780286
0.31619427 -0.5294189 0.5748172 -0.5265595 0.14236802 -0.30874917 0.63067955 0.59808666
-0.16157022 -0.0050798943 0.20440659 -0.02990786 -0.42632845 -0.2753503 0.28125283 0.29427245
0.41821727 -0.11091245 0.4185265 0.76082796 0.5700991 0.5454513 -0.048427254 -0.47208694
-0.31866413 0.3000011 0.10722988 0.20254746 0.21862058 -0.4022993 0.72407556 0.48169836
-0.7755827 -0.5236971 -0.13885424 -0.53352034 0.54111147 0.26270902 0.17457251 -0.30337626
0.22197081 -0.32681823 -0.61452615 0.09582657 0.40307453 0.6686606 0.083686635 -0.7823349
0.55727875 -0.49385422 -0.5096479 0.2838134 0.16190541 -0.35369143 0.73791313 0.16355312
-0.06916799 0.4243975 0.38614762 0.23915817 0.6674549 -0.6740063 0.27883187 0.75707585
-0.3484662 -0.030606069 0.60325855 0.15337282 0.8367033 0.25436416 -0.42538682 -0.4259812
0.4710195 0.720648 0.5415675 0.69104564 0.2299492 -0.6502874 0.085306734 -0.47959164
0.29329145 -0.031753644 0.15802039 -0.55165404

fc1.weight f4 [128, 100]
00000000: 4337 acbc 525f 183b dc20 1a3c ec46 d93c
00000010: cb6c 1cbc 5e00 663c 3666 6cbd 0644 de3a
00000020: f8f4 85bb 6e76 12bd 3c4c 8abd 793c b33c
00000030: 200e 4cbd a4da 6cbe 2ca3 d63d 93a5 943b
00000040: 1518 a33d 5800 d43b e446 8f3d 95e6 35bd
00000050: 32e5 14be 5e99 cebd 1a8c 98be edab f7bd
00000060: 9cd8 98bc 90d1 8b3d c994 053e 1638 d83d
00000070: ed8c f6bd e868 2a3c 0d5a 093d 7e2c f0bd
00000080: af46 923c 75d4 623d 63c0 90bd c065 cd3b
00000090: 09c6 87bb 08ca 9b3d e590 e63d 6e1c 3d3d
000000a0: 63bb f9bc e2ed b63d 88e1 ac3d bf50 acbd
000000b0: 706d c7bd 7c89 503d afac f43d e310 3f3d
000000c0: f948 91bd bdb4 2b3d b478 fa3c 1f6d 113d
000000d0: e6ad f73d 523a a73d 2d27 1d3d aff5 b63c
000000e0: b716 af3d d300 2a3d 1eb2 35be 3f5e 58bd
000000f0: dfce a8bb 7b96 93bb 455b 6cbd 77ed 9a3d
00000100: 8679 a5bd dfc7 d63d fcf6 10bd caf8 0f3d
00000110: aab7 98bd c954 303d 4927 20bd 870a d2bc
00000120: af4b 21bc 835a 433d 00d7 11be 048a 9dbd
00000130: d252 01be 4b90 3d3d fbe6 993d 2299 9dbc
00000140: 9dd1 14bd 3c79 a03c ea73 173c 4129 a93c
00000150: 5e94 77bd 6c0e 58bd aa96 cabd 1bd2 013d
00000160: b8a7 a43c ccbf b23d 22d9 f4bd 3808 37bc
00000170: e255 8ebd 6bd0 da3b e325 3cbd 0228 023c
00000180: 23ba af3d 6f24 29bd 009d eb3b cda5 13be
00000190: 5afb 25bd c8d0 a43c ae1f 56bd 4625 cc3d
000001a0: ba5a 09be 0298 9d3c 9aef 85bd 66da 04be
000001b0: 38a9 febd d1de b7bd 8625 17bd 25fc b2bc
000001c0: 8b34 d83d 0cd6 283d 9d98 b23d cd89 23bb
000001d0: 8d87 fa3d 4e71 113d d73e 043d cccb a13d
000001e0: c7d6 22bd 3da7 a4bc 8e7a 16be 4944 9d3d
000001f0: f895 863c cbce aebd 37be 503d eb08 febc
00000200: c73b 78bd 2c42 0f3d c75d fa3c e505 983d
00000210: 6bb8 21bd e3b9 6cbd 5507 f23c 372b 263d
00000220: 1d23 4e3d 7840 71bd 1f19 a13d 63e6 01bc
00000230: 02cc 0a3e ee34 8abd 02af b4bd 33ab 89bd
00000240: 5bce 60bd cce0 95bd c5fd 1abd 48ff ecbd
00000250: c0fd 073c 16bc 8c3d 3567 ef3c c4bd a5bd
00000260: ba4c 213d 0fed e43d 8410 85bd 1109 e6bd
00000270: 79cf 5f39 51fd 303d 90ef 543d 17cb 0b3d
00000280: 737b 9fba c029 51bb 4f46 903d aaf2 fa3c
00000290: d463 3b3d b765 0dbd 5816 3c3d 60bf 10bd
000002a0: 1c28 b6bd bfc3 44bc 8499 8dbc 2dcd b2bd
000002b0: daa8 9c3d 5ffe 09bd da5c a9bd 6a2b 8cbd
000002c0: 7ef8 8cbc 0c21 643d 22ba 583d 099f 58bc
000002d0: 4129 52bd cfa5 6cbd 517c 4cbd e526 d33d
000002e0: ba02 14bd c018 a83d 54c3 34bd e384 2a3c
000002f0: 94d5 d43d e2b9 aebd 99d9 ffbd 61fa 0cbd
00000300: 4939 b0bd ec3b fa3b 078c 2c3c eaa1 a73c
00000310: 57f4 c9bc 3239 c83d 2c63 95bd d34e 113d
00000320: 6ce3 4ebd 469b d0bd 4e54 aabd 89ae da3c
00000330: e7c6 71bd f0d6 733d d6cb 733d 4769 8b3c
00000340: 6e10 b6bd f093 a2bc 38a2 0d3d e967 cf3c
00000350: 86df acbd accf 5bbd bbd5 bc3c 65aa 3f3a
00000360: 4803 ed3d 8242 98bd d8de 83bc 87dd a13d
00000370: 588a 0ebe 67ac 49bd f0aa 1e3a 5aef 9f3d
00000380: be81 0c3d a135 55bd 3876 513d e690 55bd
00000390: 51ec 6abd e462 edbd a016 1c3b 0de9 943d
000003a0: dbd2 8fbd c0b8 bdbc 1c5b a73d 650b 3a3d
000003b0: 611a 64bc f0d5 3b3d 3645 de3c 2169 233c
000003c0: 8817 713d ebb3 c63c 6348 a1bb 583d 753d
000003d0: c2ac 8cbd 15f9 fc3c 2cc3 4dbc 5385 9bbd
000003e0: 348d 933d 8ea3 f3bd dffc dcbd 42db a63c
000003f0: ade8 00bb bac7 f63d aeb8 7bbd 93e2 353c
-0.021022445 0.0023250175 0.009407248 0.026523076 -0.009547423 0.0140381735 -0.057714663 0.0016957528
-0.0040880404 -0.035757475 -0.06752822 0.021879422 -0.04981816 -0.2313028 0.10480341 0.0045363395
0.07963578 0.0064697675 0.06995943 -0.044409353 -0.14540556 -0.10087846 -0.2979439 -0.12093339
-0.018657975 0.0682708 0.13045038 0.105575725 -0.12038598 0.010400988 0.033533145 -0.11727236
0.01785597 0.055378396 -0.07067945 0.006268233 -0.0041434807 0.07606894 0.11258105 0.04616969
-0.03048486 0.08932091 0.08441454 -0.084138386 -0.097376704 0.050912365 0.11946999 0.046646964
-0.070939966 0.041920412 0.030575134 0.035504457 0.12093715 0.081654206 0.03836744 0.022333948
0.085492544 0.041504692 -0.17743728 -0.052824255 -0.005151614 -0.0045040227 -0.05770423 0.07564824
-0.080798194 0.10487341 -0.035391793 0.035149373 -0.07456906 0.043049607 -0.039099965 -0.025639785
-0.0098447045 0.04769374 -0.14242172 -0.0769234 -0.1262925 0.046280187 0.07514759 -0.019238058
-0.036332715 0.019589059 0.009243945 0.020649554 -0.06044423 -0.05274813 -0.09892018 0.031694513
0.020099506 0.087279886 -0.11955477 -0.011171393 -0.069499746 0.0066776774 -0.04593457 0.007944109
0.08580425 -0.04129451 0.0071903467 -0.14418717 -0.04052291 0.020119086 -0.052276306 0.09968047
-0.13413516 0.019237522 -0.06539841 -0.12973937 -0.1243462 -0.08978046 -0.03690102 -0.021848748
0.10556897 0.041219756 0.08720515 -0.0024953962 0.122328855 0.035508446 0.03228649 0.07900199
-0.03975561 -0.020099277 -0.14695188 0.0767904 0.016428933 -0.085355364 0.050962653 -0.031010112
-0.060603883 0.034975216 0.030562295 0.07422999 -0.039482515 -0.057794463 0.029544512 0.040568557
0.050326455 -0.058899373 0.078661196 -0.007928464 0.13554385 -0.06748377 -0.088224426 -0.06722107
-0.054884296 -0.07318267 -0.03783967 -0.115721285 0.008300245 0.06871812 0.029224018 -0.080928355
0.039379813 0.11178028 -0.06497291 -0.11232198 0.00021344227 0.04321033 0.051986277 0.03412923
-0.0012167528 -0.0031915754 0.0704466 0.03063329 0.0457495 -0.03452083 0.045919746 -0.03533876
-0.08894369 -0.01200956 -0.017285116 -0.087305404 0.076493934 -0.033689853 -0.08269663 -0.06844218
-0.017208334 0.05569558 0.052911885 -0.013221511 -0.051308874 -0.057775315 -0.049923245 0.10310153
-0.036135413 0.08207846 -0.044131592 0.010407659 0.10392299 -0.08531548 -0.12492675 -0.034418467
-0.08604676 0.007636538 0.010531432 0.020462949 -0.024652643 0.09776534 -0.07294306 0.035475563
-0.050509855 -0.10185866 -0.08316861 0.026694553 -0.05902758 0.059531152 0.059520565 0.017017974
-0.088898525 -0.019845933 0.034578532 0.025318103 -0.08441071 -0.05366485 0.023051133 0.00073114625
0.115728915 -0.0743456 -0.016097471 0.07903581 -0.13919961 -0.04923668 0.00060526934 0.078093246
0.03430342 -0.052053098 0.051138133 -0.05214014 -0.057354275 -0.115911275 0.0023817196 0.072710134
-0.07022639 -0.023159385 0.081716746 0.045421023 -0.013922305 0.045858324 0.027132612 0.009973795
0.05886033 0.024255713 -0.0049219592 0.059872955 -0.068688884 0.03088049 -0.01255874 -0.07593789
0.07204667 -0.1189643 -0.10790419 0.020368222 -0.0019669936 0.120498136 -0.06145542 0.011101383

fc1.bias f4 [128]
00000000: ee9a 8f3d bba7 6d3d 9d6f f63d d724 023e
00000010: 3d81 733e 7206 4fbd 86c5 ac3d 9cc2 493e
00000020: 38c6 3d3d f3a7 823d 7bee 0f3e c11a 043e
00000030: 27ea 29bd b1cb 2a3c 645a 0a3b e9fe 1f3e
00000040: 7933 2e3d e75a bdbd a55c 923d 95f6 b33b
00000050: 9c04 343e 2b88 5f3a a188 1a3e 8597 0f3e
00000060: e3d2 c0bd 2a92 203e bc82 323d ffc7 c73d
00000070: 964f 8a3c 648c 243e cade de3d 2ae7 293e
00000080: 38fd c03d bec4 563e 6ba8 2f3d ddcc 373e
00000090: a6c5 bbbd 3886 433e 41bb e63d fe5a f6bd
000000a0: fb46 243c 9793 d4bc 4c31 4d3d 9c29 cbbd
000000b0: fe26 c2bc c212 8e3d f076 263e 951b 2ebc
000000c0: 94c1 e43d 733c 883d b277 353e 8b8d 573c
000000d0: 4917 ea3d 123c 263e f74a 173d 3d9f f13d
000000e0: 5170 b33d 705a 8f3d 9c37 a93d 86af 273e
000000f0: 4561 d33c 272e b53d c9a2 233e ffef 053d
00000100: 6edb 193e dd57 c43d af51 fa3d 5965 013b
00000110: 9d57 743e 640c c63d f34c 3f3d 6108 cc3c
00000120: 558d 153e 1f89 c1bd 18ee 103e 047c 363e
00000130: 8289 47be bafe 233e 9d2d 07bd d783 993c
00000140: 65df a83d d96c 1f3d eaf8 64bd b2af 23be
00000150: 01ad 943d 0bb9 35bd b216 de3d 197a abbd
00000160: 5919 143e f74b b8bd d5ea 0a3e 703f 77bd
00000170: ac61 273e c2fa cdbb 189f 683c 7fa9 4d3e
00000180: d929 3a3e aa91 8c3d 733e 983d 592e 0c3e
00000190: 29c4 143e 53d2 cebd f9e0 c73d 1d79 5e3d
000001a0: 1a90 ef3d e4d3 8d3d 023c 0a3d 7a00 a03d
000001b0: 779a fb3d 02b9 ef3d 7e96 683e 414a 323d
000001c0: b056 ea3d a370 bf3d c49f 0e3e e672 0d3e
000001d0: 0013 87bd 963e 343c d548 32bb 2084 843d
000001e0: 45ab 423d fedb 363e 408f 0d3e 9cad 4d3e
000001f0: 0e32 d9bd cacf f63d 9dee ae3d 736f 4a3e
0.07011972 0.05802129 0.12033007 0.12709366 0.23779769 -0.050543256 0.08436112 0.19703144
0.046331614 0.0637969 0.14055817 0.12900831 -0.04148307 0.01042454 0.0021111006 0.15624584
0.042529557 -0.09245854 0.07146577 0.0054920414 0.17579883 0.00085270655 0.15091182 0.14022644
-0.094152234 0.15680757 0.04358171 0.09754943 0.016883653 0.1606918 0.108823374 0.16592088
0.09423298 0.20973489 0.042885225 0.17949243 -0.09168558 0.19094169 0.112661846 -0.12029074
0.010026689 -0.025949283 0.05009584 -0.09920046 -0.023700234 0.069371715 0.16256309 -0.010626693
0.111697346 0.06652155 0.17721441 0.013156305 0.114302225 0.16233853 0.036936726 0.117979504
0.08761657 0.069996715 0.0826256 0.1637555 0.025803218 0.088466935 0.15980066 0.03269958
0.15025112 0.09587071 0.12222611 0.0019744246 0.23861547 0.09670332 0.046704244 0.02490634
0.14604695 -0.09449982 0.14153326 0.17820746 -0.19486049 0.16015139 -0.033002485 0.018739624
0.08245734 0.038922165 -0.055901445 -0.15984991 0.072595604 -0.044365924 0.108441725 -0.08372898
0.14462794 -0.08998864 0.13566144 -0.060363233 0.16345853 -0.006285996 0.014198087 0.20084189
0.18180026 0.06863721 0.07433786 0.13689555 0.14527954 -0.1009871 0.09759707 0.05431472
0.11697407 0.069251806 0.033748634 0.07812591 0.12285321 0.11705209 0.22713658 0.043527845
0.114423156 0.093476556 0.13928133 0.13813362 -0.06595421 0.01100125 -0.0027204056 0.06470513
0.047526617 0.17857358 0.13824177 0.20085758 -0.1060525 0.12051351 0.085416056 0.19769077

fc2.weight f4 [64, 128]
00000000: 1919 453d d105 fcbb b9a2 a63d 5c6f e53d
00000010: cfb8 c7bd 08d3 c4bc 88cc cc3c 76b3 f53c
00000020: 6366 813d 1e32 693d 4174 9abb 5693 10bd
00000030: f05f fbbd 6a57 8bbd 6d30 f2ba 16d5 3dbc
00000040: 7624 e83b 5a74 dcbd 7e18 f73c 22ae bdbc
00000050: ef4b 3c3c 4204 86be 23be ba3d b6a8 dc3d
00000060: c455 8bbc 6f11 9e3c e94e abbd e920 ce3c
00000070: 2c2d 92bd d370 afbd 67d1 9b3d 56c3 57bc
00000080: b43b f83d edee eebc 34d5 24bd 3271 01bd
00000090: 2b34 dcbc 8a0f a43d f5df babd e230 19be
000000a0: b3c6 8cbd 0527 95bc 281b 69bd 5a25 493c
000000b0: 2bae 10bb bd6f d73b cd12 2bbd b902 87bc
000000c0: f5a8 d6bd ba14 bf3c 5ca0 e03c 12e9 28bd
000000d0: ca3e 9e3c 3909 32bd bb43 28be 619b e43c
000000e0: 1a30 6ebd c443 e3ba c668 8ebd 36e7 1cbd
000000f0: d5fa bcbc 5e63 aebb a8a1 76bd 867c 7f3c
00000100: 52f0 ceba 13ee a7bc 31dd 263d 82f1 413d
00000110: 3799 b83d 7b8b 7d3d e422 a43d 70c5 f9bd
00000120: d2b2 d23d bfad 0e3c e5d6 d1bd 5e47 1b3b
00000130: a886 033d c56b 313d 6d6a 623c 9008 acbd
00000140: abbc e1bc 7ed6 dc3c 115e 70be 871e 04bd
00000150: 84b3 9c3c 0d7e 5abd c889 58bd 3bb4 183d
00000160: b59a 823d 3d33 083c 7744 df3d 6efb ba3d
00000170: 1746 813c db61 373d 60cf a33d 2657 8b3d
00000180: eb5c aabe 48db a0bd 5ac9 353b 7e6b 65bd
00000190: 8038 4cbc f800 88bb f82f 563d ff21 9e3d
000001a0: 59d6 12bd 3dcd 8c3d 0ae9 143b feb1 9a3d
000001b0: f6b1 9c3c b338 ba3d f714 343d 5d8f a73d
000001c0: cdc1 2fbd 2660 44be 6184 95bd 516c 843b
000001d0: 83c0 04bc edb6 d6bd 21ce 82bb f27d 183c
000001e0: fd44 05be 512b 9e3d 1602 543d b406 aa3d
000001f0: 30dc 9ebd 1b73 923d fd92 893c bb05 5fbc
00000200: e2dd 593d a673 503c 73d4 823d 2015 5dbd
00000210: 652b 8fbd ad71 a83a 33a3 0d3b 84b8 47bd
00000220: 016c b93c f436 0a3c 8b42 843d f21a 41bd
00000230: 0ff5 a93d 9917 903c 9090 83bd 1b2e a2bd
00000240: 27d0 163d 28af 903d bb4e d33d 80e0 07be
00000250: 249f efbd 4b1d babd 6ef0 843d 1dd1 223d
00000260: e357 20be 1a1f 0b3c a926 48bd 388e 87bd
00000270: 2411 013c a02a 053d 658b 12be 791e c63c
00000280: 7a39 92bc 6d6f 923d 2eaf 8ebc d154 60bd
00000290: 8a03 183c c10e 843c 6c6b 073d f0c3 183d
000002a0: 9dad 90bd 5ed6 a7ba 3719 1cbd f8e5 c4bb
000002b0: 114a b83c 204c e6bc 2f02 d93b d899 8abc
000002c0: fc76 27bd 9c0a b73c 789b 973d 65f7 033d
000002d0: 3f54 9dbc f6f2 d0bc c755 19be e0a6 b73c
000002e0: 309b c63b df19 52bd e717 babc 0338 ea3c
000002f0: ac0a c9ba 3f81 913d 26f3 aabc f383 d73c
00000300: b549 a9bd 6a64 e23c 57ca 973d 7410 8b3b
00000310: 2416 673d c311 9e3d d560 113c 43f5 2dbe
00000320: 56d6 be3d aa90 1ebd b5c9 54be 49ea 923d
00000330: f806 90bd 38c3 4a3d feae 383c 39aa 7fbd
00000340: c595 7c3d ffe8 933c 1ed8 5cbd ad07 51bb
00000350: 0544 3c3d e35a 91bd 015a 233d f6ac 233b
00000360: c4de c0bc 3fd8 403d 8cca 0a3d 3e88 ccbc
00000370: 7104 3fbd f564 a73c e2ee a83d bd86 903c
00000380: afe7 c9bd 6ec8 c53c 2042 d3bc 5d89 3fbc
00000390: a4e5 2bbd 0854 79bd 717b a13d 829f 1fbd
000003a0: 41d3 193c 753a d63d 6478 a0bd 98aa 7d3d
000003b0: 4792 0c3d be10 b43d d252 55be 62f7 813c
000003c0: 3a99 923d 6df7 f43d 85b0 9abd a570 a03d
000003d0: 9b1b cf3d 8162 08bd 0fe6 f6bc 0b55 82bd
000003e0: bed2 263d c316 c43d d64a f83c 65b1 a23d
000003f0: ebcd b43d 874a be3b 0983 1b3d e7c3 333d
0.048119638 -0.007691123 0.08136506 0.11202881 -0.09752046 -0.024026409 0.024999872 0.0299928
0.06318357 0.05693256 -0.0047135656 -0.03529676 -0.12274158 -0.06803782 -0.0018477567 -0.011586448
0.0070844246 -0.1076438 0.030163046 -0.023154322 0.011492713 -0.26175123 0.09118297 0.107743666
-0.01700867 0.019295422 -0.0836466 0.025162177 -0.07137522 -0.085664414 0.076083 -0.01316913
0.121207625 -0.029166663 -0.04024239 -0.031602092 -0.026880344 0.08010776 -0.09124748 -0.14960054
-0.06873836 -0.018207083 -0.056910664 0.012276972 -0.0022076468 0.0065745995 -0.041765977 -0.01648079
-0.10481445 0.023325313 0.027420215 -0.0412379 0.01931705 -0.043465827 -0.16432087 0.027906122
-0.058151342 -0.0017338921 -0.06953578 -0.038306437 -0.023068825 -0.005321904 -0.06021276 0.015593654
-0.0015788174 -0.020499265 0.04073829 0.04734946 0.090135984 0.061900597 0.08014467 -0.12195861
0.102880135 0.0087084165 -0.10246066 0.0023693661 0.03211084 0.043315668 0.013819319 -0.08400071
-0.027555784 0.026957747 -0.23473383 -0.032255676 0.019128568 -0.053342868 -0.052865773 0.037281256
0.06377164 0.008312997 0.109017305 0.09129988 0.015780492 0.044771057 0.07998538 0.068037316
-0.33274016 -0.078543246 0.0027738423 -0.056010716 -0.0124646425 -0.004150506 0.05229184 0.07721328
-0.03584895 0.068750836 0.002272191 0.075534806 0.019127827 0.09092846 0.043965306 0.08181641
-0.042909432 -0.19177303 -0.0730064 0.0040412326 -0.008102539 -0.10484109 -0.0039918576 0.009307371
-0.13014598 0.07723106 0.0517598 0.0830206 -0.07756841 0.07150861 0.016793722 -0.013612206
0.05319012 0.012722885 0.06388178 -0.053975224 -0.06990699 0.0012851261 0.0021612167 -0.048759952
0.022634508 0.008435953 0.064580046 -0.047144838 0.08298694 0.017589377 -0.064240575 -0.0791895
0.036819603 0.070646584 0.10317751 -0.13269234 -0.117002755 -0.090876184 0.06491171 0.039750207
-0.15658526 0.008491302 -0.048864994 -0.06618923 0.007877622 0.032511353 -0.14310987 0.024184452
-0.017849673 0.07150159 -0.017417517 -0.054768387 0.0092781875 0.016120316 0.03306143 0.037296236
-0.07064364 -0.0012804975 -0.038109984 -0.0060088597 0.022496255 -0.028112471 0.0066225748 -0.016919062
-0.040884957 0.022343926 0.074027 0.032218356 -0.01920521 -0.025506478 -0.14974128 0.02241844
0.0060609803 -0.051294204 -0.022716476 0.028591162 -0.0015338263 0.0710473 -0.020867895 0.026308035
-0.082660116 0.027635772 0.0741164 0.0042439047 0.0564176 0.077182315 0.008873184 -0.16988091
0.09318225 -0.03871218 -0.2078007 0.071735926 -0.07032579 0.04950258 0.01127219 -0.062418196
0.06166627 0.018055437 -0.053917043 -0.0031895444 0.045963306 -0.070974134 0.039880756 0.002497492
-0.023543723 0.04708123 0.03388457 -0.02496731 -0.046635095 0.020433882 0.08248688 0.017642373
-0.09858643 0.024143424 -0.025788367 -0.011690465 -0.04196705 -0.060871154 0.07884873 -0.038970478
0.009388746 0.104603685 -0.07835463 0.06193027 0.03431919 0.08792256 -0.20832375 0.015865032
0.07158132 0.11961255 -0.075532 0.07833985 0.10112687 -0.033297066 -0.030138997 -0.06363877
0.040728323 0.09574654 0.030309122 0.079439916 0.08828338 0.005807224 0.03796676 0.043888

fc2.bias f4 [64]
00000000: 4e8e 133e ae80 673d e47f 2ebe 13bf d53d
00000010: e067 da3d 3486 99bb b9ab 2b3d 42cf fb3d
00000020: ae04 b83d 8ab2 cb3c d80c f53d 70ad 10bc
00000030: 7746 c73d cb07 8c3d 0f64 253d 7d45 0fbd
00000040: b2e9 1d3e cebd 883c 709e 15bb b750 1e3d
00000050: 5f98 7f3d eac7 ad3d d96b eabd 8121 14be
00000060: 5f88 8d39 1d5e 3c3e 0c64 81ba f6de edbc
00000070: ff03 433e 4d91 2bbe 4c3d 0d3e 2a53 473d
00000080: d1d0 653a 405f cb3d 1037 a53d fdca e8bc
00000090: 1f13 063e 1a3a c9bd 4d08 c53d 415f b13d
000000a0: c36c 55bd 9394 de3d fa23 e33d 7b02 a83c
000000b0: c633 39bd 6b64 b4bd a1ea 0cbc 2be6 3fbd
000000c0: 6e3c 52be 7c87 1b3e 534e bf3d 2bfe 1b3e
000000d0: 687f 5d3d 0682 163d 60cc 15be 44d0 b5bc
000000e0: ecfb 91bd 2433 fe3d 35d5 bf3c f1f1 323d
000000f0: 0cf8 bdbd 193f 19be 4570 083c cef8 a8bb
0.14409754 0.056519203 -0.17040974 0.10436835 0.10664344 -0.0046851877 0.041911814 0.12295391
0.089852676 0.024865407 0.119653404 -0.008830413 0.09730237 0.06837424 0.040378626 -0.03497838
0.15421179 0.016692068 -0.0022830032 0.038651194 0.06240117 0.08485396 -0.114463516 -0.14465906
0.0002699522 0.18395276 -0.0009871735 -0.02903698 0.19044493 -0.16754647 0.13792914 0.048663296
0.0008766773 0.09930277 0.08067143 -0.028417105 0.13093232 -0.09825535 0.09620724 0.08660746
-0.052105676 0.10868182 0.11090846 0.020508995 -0.04521539 -0.08808216 -0.008600862 -0.046850365
-0.20530865 0.15188402 0.09341111 0.15233676 0.054076582 0.036745094 -0.14628744 -0.022194035
-0.071281284 0.12412098 0.023417095 0.043687765 -0.09275827 -0.14965476 0.008327548 -0.005156613

head1.weight f4 [1, 64]
00000000: 838c 9a3d 39e0 28bd eacc 403d 7412 ae3d
00000010: 4d57 a43c 85b7 eebd e656 823d 2412 b33d
00000020: 934e 0b3e e8fd 843c 38dc a0bd 2a50 48bc
00000030: 085a 7bbb 0914 7c3d c8a9 72bd 99ad 77bd
00000040: c85b 42bd 73ce 0bbd 3110 edbc 9760 cd3d
00000050: 7b52 8c3d e971 7c3d fbe8 883d db85 593a
00000060: d5dd 593d f985 973b 0643 99bc 02c5 53bb
00000070: f087 94bd b475 c63c d09f 19bc 3eb7 e73c
00000080: b1f4 00bd d741 fb3d 2ddf e3bc 22a3 92bd
00000090: 37c0 093e 0116 f23c 3814 0c3e d7b2 8d3d
000000a0: da0f 8f3d fcb7 aaba 922e e33d f97f b23d
000000b0: 22a0 a9bd 8c56 c93c 1e45 7bbd 4f78 a73d
000000c0: 88d7 243d 3974 84bd bb39 c7bc 0d0b 9e3d
000000d0: abf7 e03c bf0d 4fbd 5e92 b93d 131e 8f3d
000000e0: 74cc 043e 41cd 193b 7641 da3b 2a28 023e
000000f0: 4b7e 653d 7f59 3e3c 34e9 c93d fcf5 95bb
0.07546332 -0.04122946 0.04707042 0.084996134 0.02006116 -0.11656097 0.06364231 0.087436944
0.13604192 0.016234353 -0.078545034 -0.012226144 -0.0038353223 0.061542545 -0.059243947 -0.06046829
-0.04745081 -0.034132432 -0.028938385 0.10028189 0.068516694 0.06163207 0.066850625 0.0008297839
0.05319007 0.004624125 -0.018708717 -0.003231347 -0.072524905 0.024226047 -0.009376481 0.028285619
-0.031483356 0.12268417 -0.02781638 -0.07160021 0.1345223 0.029551508 0.13679588 0.069188766
0.06985445 -0.0013024802 0.11092867 0.08715815 -0.08282496 0.024577402 -0.061345212 0.08177244
0.04024461 -0.0646748 -0.02431952 0.077169515 0.027461847 -0.05055022 0.090611205 0.06988158
0.12968618 0.0023468288 0.0066606356 0.12710634 0.056028645 0.011618017 0.09858933 -0.0045764428

head2.weight f4 [1, 64]
00000000: 1c14 d83d 33ec 0cbc a8b9 9abd 9604 113e
00000010: c68d 22bd 3b85 ba3d 95e9 a63d 9699 873d
00000020: e4d6 21bb 5050 69bd 6df5 a63d 80fc a63c
00000030: 987d 72bc 2a45 c1bd ab9a b33d a63f 683d
00000040: 8429 f13c a98a a43c 6482 9f3d cdca ea3c
00000050: 5270 85bc e88f 443d 0c9d 823d 8414 d5bd
00000060: 59b6 ae3d 9ccb 00bc 3eec 96bd c0a5 d6bb
00000070: 0270 063e 577f e33d 6759 0cbc d1ca e43d
00000080: f3e1 b5bd 2746 1ebd a1b4 273b 5422 e43b
00000090: 5cd1 2a3d 8dc9 523d 2260 ff3d 0bf8 a5bd
000000a0: 8ee8 a3bd 3d6f 8fbd 6914 9b3c 7479 f63d
000000b0: 3043 8c3d 3615 8d3b 7245 1cbd 0e79 9a3d
000000c0: 3254 723b a4ae ba3d 9532 d83d 9abe 2a3d
000000d0: ee63 71bd 5d94 65bd 7f20 6d3d 728d 1dbd
000000e0: 7e1c 3c3c de92 f53d b628 b5bd 5b53 da3d
000000f0: 82bc 313d 633b b0bd 79ce 39bd 07fe 99bd
0.105507106 -0.008601236 -0.07554942 0.14161906 -0.039685987 0.09107443 0.08150021 0.06621091
-0.0024694735 -0.056961358 0.0815228 0.020384073 -0.014800452 -0.0943702 0.08769735 0.056701325
0.029438742 0.02008565 0.07788542 0.028661156 -0.01628891 0.047988802 0.063776106 -0.10404304
0.08530874 -0.007861044 -0.07369278 -0.0065505207 0.13128665 0.111082725 -0.008566237 0.11171497
-0.08880987 -0.03864112 0.002558984 0.0069621 0.041703567 0.051461745 0.12469508 -0.08103951
-0.08003341 -0.07003639 0.01893063 0.12034884 0.068487525 0.004305507 -0.038152166 0.075426206
0.0036976454 0.09115341 0.10556523 0.041685678 -0.05893319 -0.056049693 0.05789232 -0.03846497
0.011481402 0.11990903 -0.088456556 0.1066043 0.043392666 -0.08605077 -0.045362923 -0.07519155

head3.weight f4 [1, 64]
00000000: 4004 09be 73ba afbd f3d8 c3bd 1fa4 b33d
00000010: 4180 143d af8d bdbd 6b73 88bd f6f0 3ebd
00000020: 01d1 f83d fbc4 bc3c 0a36 0dbc cd1f 9d3d
00000030: 9a31 953d ec79 b7bd ed55 de3d 22e1 843d
00000040: a31b 293d 1977 ae3d 3992 2f3d 069c 0f3e
00000050: b55f f9bc 9eeb 57bd 6525 8c3d c402 263d
00000060: 3556 0bbe 3ce8 833d f787 acbd f322 0bbd
00000070: 651a 533d e448 03be f151 213a 505b aa3d
00000080: ab96 32bd 6609 97bd e985 8a3d 0fb7 a7bd
00000090: b538 a23b c3ea fdbd f2ef dbbc 2f5f 0b3d
000000a0: 0eea 04be e4e1 f73d d03e b8bd cf67 9b3d
000000b0: 264f d53d c0b2 95bc f763 16bc bfc9 f4bd
000000c0: 9dad 66bc 21e5 c33d c0e0 683c d290 9b3c
000000d0: a065 ff3c 5b97 adbd 6981 e1bd a6ab e9bd
000000e0: 9884 393d b46f 963d d40a 7d3d 5db2 5abd
000000f0: 502e f9bd 0eaa 96bd e0b6 54bc 5f3d a53d
-0.13380527 -0.08580484 -0.09562864 0.08771538 0.036255125 -0.092555396 -0.06662639 -0.046616517
0.12149239 0.023043146 -0.008618841 0.07672081 0.07284851 -0.089588016 0.10856233 0.06488253
0.041286122 0.0851881 0.04286406 0.14024362 -0.030441144 -0.052714936 0.0684307 0.04052998
-0.13607104 0.064407796 -0.08424371 -0.033968877 0.051538844 -0.12820774 0.0006153873 0.08318198
-0.04360072 -0.073748395 0.067638226 -0.081892125 0.0049506077 -0.12398293 -0.026847813 0.03402632
-0.1297991 0.12103632 -0.089963555 0.07588159 0.10415487 -0.018273711 -0.009179107 -0.119525425
-0.014079479 0.09565187 0.014213741 0.018989954 0.031176388 -0.084761344 -0.11011011 -0.114096925
0.045292467 0.073455244 0.061777905 -0.053392757 -0.121670365 -0.07356654 -0.012983054 0.08068346

head4.weight f4 [1, 64]
00000000: ba28 dd3d 6ce7 fc3d a072 6bbd 8193 c03d
00000010: b2c2 de3d 41c9 67bd 3fbf 033d 8049 943d
00000020: a3ee b73d 406f 343d 547b c0bb 2e9c 17be
00000030: 9411 773b 212f ad3d 5c2a cd3d de8f cebd
00000040: b3d9 e63b e55a da3d 299e 9c3d 5036 bcbc
00000050: 8462 2e3d b863 1abd 5ee0 63bd d67e 463d
00000060: 5b4f fb3d 497d 65bc 08e3 3dbc cf4c c8bd
00000070: ce34 e13d 1d18 c4bd 990e cfbc 6f93 093e
00000080: 0a41 78bc bec0 4c3d 8dd5 d13d 7f1e 00bc
00000090: 25dd 0c3d 1191 f8bd 0d76 8d3d 5b8a a8bc
000000a0: b2e7 9cbd 7e0c 043e 239d aabc 9bb3 08be
000000b0: 0714 1bbe 2f46 a6bc c7e8 6f3d 6ad2 803d
000000c0: be7e fbbd fcd1 b33d bdf3 113e e810 2d3d
000000d0: b8a4 013d ea04 813d 525e 02bd a987 3f3c
000000e0: daac 463d aeea 643d 7183 e2bd 7905 ca3d
000000f0: 2cb5 e83d 3993 4dbd be47 0cbd fc5d 68bc
0.107987836 0.12348828 -0.05748236 0.09403134 0.10876979 -0.056588415 0.03216481 0.072405815
0.08981063 0.04405141 -0.005874077 -0.14805672 0.0037699686 0.08456255 0.10017845 -0.10086034
0.0070449947 0.10661868 0.07647354 -0.022975117 0.04257442 -0.037692755 -0.055633895 0.048460804
0.12270995 -0.014006921 -0.011589773 -0.09780275 0.109964 -0.09574912 -0.025275515 0.13435148
-0.015152225 0.0499885 0.1024581 -0.007819771 0.034390587 -0.12137044 0.06907282 -0.020573786
-0.0766138 0.1289539 -0.020826882 -0.13349764 -0.15144359 -0.020297138 0.058571603 0.06290133
-0.122800335 0.08780286 0.14253135 0.04225245 0.03165123 0.062997654 -0.031828232 0.011690059
0.048504688 0.05588787 -0.11060227 0.09864325 0.11362681 -0.05018923 -0.034248106 -0.014182564

head5.weight f4 [1, 64]
00000000: f07d 89bc 357f f93d a441 a4bc 30de fe3d
00000010: 6e23 143d 0b82 033e 1ea6 a33d 5631 5d3c
00000020: fc2b 893c 145b 60bb 12a1 373d 2539 e63d
00000030: 2d85 e83c 12f3 05bd 5d6f 9c3c 173e 633c
00000040: ea59 133d 768c 41bd 23aa d2bb 9c2c cb3d
00000050: 3ee3 a4bc 8c20 023e 8e49 7abc ce32 0bbe
00000060: 5df9 26bd d5ba e33d 8f64 833d 6afc 043b
00000070: aba4 5a3c 7df4 57bc 22c9 de3d 9321 7b3b
00000080: 5bc8 d43d 6a6c 183d 9553 093d a49b 483c
00000090: f0b0 eb3d 6af0 a93d b644 113e f981 ed3d
000000a0: fc2c 00bd 22dd c43c 62a3 f73d 7c42 053e
000000b0: 0d4d 013d 13bc d7bb 8d45 8abd f2e2 86bd
000000c0: 176c 02bd 6c4b 9f3d d5db 81bd 0ad7 9c3d
000000d0: a582 bc3d 2d13 113a e283 37bd f476 763c
000000e0: 1368 bfbd f2d6 be3c 9fab fd3d 0699 563d
000000f0: 5dd0 ecbd 3358 febc e4d0 f63d e84f 8bbc
-0.016783684 0.12182466 -0.020050831 0.12444723 0.0361666 0.12842576 0.07990669 0.013500532
0.016744606 -0.0034233974 0.044831343 0.11241368 0.028383816 -0.032702513 0.01909607 0.013869784
0.03597442 -0.047253095 -0.0064289733 0.09920618 -0.020127889 0.12707728 -0.015276326 -0.13593599
-0.040765155 0.1111962 0.064156644 0.0020292052 0.013344924 -0.013180849 0.10878207 0.0038319572
0.10389777 0.037212767 0.033526976 0.012244139 0.115083575 0.082978085 0.14186367 0.11597056
-0.0312929 0.024031226 0.1209171 0.13013643 0.031567622 -0.0065836995 -0.06751547 -0.06586255
-0.031841364 0.077780575 -0.06340758 0.07658203 0.09204606 0.00055341684 -0.044803508 0.015043009
-0.093460225 0.023295853 0.1238625 0.05239203 -0.1156318 -0.031047916 0.120515615 -0.017005876

head6.weight f4 [1, 64]
00000000: 3b24 03bc 167c 263d d031 d7bd 02d3 ee3d
00000010: 65ed c8bc 980e 02bb feef b2bd 7e7c 2d3d
00000020: f746 23bd 819b adbb 0642 98bd 4f31 7a3d
00000030: bd4f febc 1dc7 f0b9 1228 823d 1a4e e13c
00000040: 4bfc 4a3d 9503 11bc ad60 cfbd 4b0b 853d
00000050: 3722 d83d 1872 093e 48ba 44bc 5efe 9fbd
00000060: 6528 88bd 4401 5c3d fb64 94bd a1c9 9cba
00000070: 80a8 10bd 3f5d 1e3e 40b0 91bc d95e 063e
00000080: 81bf 973d 65e6 cd3d bf80 c1bd b89e 4abd
00000090: 6b23 4dbd 6689 12bd 20a9 de3d 0584 bc3c
000000a0: 4daf 453c 5e01 edbd faca d63d 452f 46bd
000000b0: 1e43 88bc 488f 8d3d a51f d33d d113 a23c
000000c0: d614 af3d 61c0 22bd c5ca 073e 1daa 0a3e
000000d0: bb00 3a3d 1c33 b9bd bf18 e43d 8114 a33c
000000e0: 1564 9ebd eda1 8abd 20d0 583d 9985 143e
000000f0: 8f2c 8fbd e0db c3bb 15c2 dd3d 8a20 8b3c
-0.0080042435 0.04064568 -0.10507548 0.1166134 -0.024527261 -0.0019845124 -0.08737181 0.042355053
-0.0398626 -0.0052980785 -0.07434468 0.06108218 -0.031043882 -0.00045924718 0.06355299 0.027503062
0.04955701 -0.008850952 -0.10125861 0.064962946 0.10553401 0.1342243 -0.012007304 -0.078121886
-0.0664833 0.053712144 -0.07245823 -0.0011961946 -0.035316944 0.15465258 -0.017784238 0.13122119
0.07409573 0.1005371 -0.094483845 -0.049467772 -0.050082605 -0.035775565 0.10872102 0.02301217
0.012065721 -0.115725264 0.104879335 -0.048384923 -0.016633566 0.06912094 0.1030877 0.01978484
0.08548896 -0.039734248 0.13260944 0.13541456 0.045410853 -0.090429515 0.111375324 0.019907238
-0.07733933 -0.06769166 0.05293286 0.14504088 -0.06990921 -0.005977139 0.10828034 0.01698329
